src/ebm_tool_designer/weights/reward_model_best.pt (torch, 174401 bytes, 11 tensors)

net.0.weight f4 [128, 6]
0	0xbf791b92	-0.97307694
1	0x3ee8eacc	0.45491636
2	0xbf5ca5ec	-0.86190677
3	0xbd659b40	-0.05605626
4	0xbf57098a	-0.8399893
5	0x3f4ced58	0.8004966
6	0x3e8167f0	0.2527461
7	0x3f06b026	0.5261253
8	0xbf66d980	-0.9017563
9	0x3f21951c	0.6311815
10	0xbf19a16c	-0.60011935
11	0x3f7a1e3a	0.9770237
12	0x3f3c3e7c	0.73532844
13	0x3f59174c	0.84801173
14	0xbeb61764	-0.3556472
15	0xbe413320	-0.18867159
16	0xbdccccc0	-0.099999905
17	0x3e856470	0.2605319
18	0x3f5dad46	0.8659252
19	0x3f1234a6	0.57111585
20	0xbd453d40	-0.048154116
21	0x3ecb74dc	0.39737594
22	0xbf1f8ea2	-0.62327015
23	0x3f651556	0.8948568
24	0xbe998144	-0.29981434
25	0xbec85220	-0.39125156
26	0xbe9d6298	-0.30739284
27	0x3e37b818	0.1794132
28	0x3f758f48	0.95921755
29	0xbdd3da50	-0.10344374
30	0xbf241a20	-0.64102364
31	0x3c200000	0.009765625
32	0x3dc4ec80	0.09615421
33	0xbefa8960	-0.48932934
34	0x3e67a838	0.22622764
35	0x3a17d800	0.00057923794
36	0x3f139b60	0.5765896
37	0xbf769b4a	-0.963307
38	0xbea5fd0c	-0.32419622
39	0xbe329920	-0.17441225
40	0x3f402252	0.7505237
41	0xbec52900	-0.38507843
42	0xbf04ff3e	-0.5195197
43	0x3f4e6204	0.8061831
44	0xbe0696d8	-0.1314348
45	0x3f264002	0.6494142
46	0xbe8ae704	-0.27129376
47	0x3d83d040	0.06436205
48	0xbf3c15e2	-0.7347089
49	0xbedcb800	-0.4310913
50	0x3f4dcd74	0.8039162
51	0x3f650e96	0.8947538
52	0xbf63c95c	-0.88979125
53	0xbf3b6a14	-0.7320874
54	0x3f290998	0.66030264
55	0x3e3484c0	0.17628765
56	0xbf5e3ab8	-0.8680835
57	0xbf06f950	-0.5272417
58	0xbf34d760	-0.70641136
59	0x3e8f1de8	0.27952504
60	0x3ec17108	0.37781549
61	0x3f34e95e	0.7066859
62	0x3f54a45e	0.83063304
63	0xbee7d568	-0.45280004
64	0xbf0b574e	-0.5443009
65	0x3e2dc788	0.16970646
66	0xbe19d960	-0.15024328
67	0x3f29d52c	0.663409
68	0x3efdeef0	0.49596357
69	0x3f5e2658	0.8677726
70	0x3f1eb5ac	0.6199596
71	0xbf5a1042	-0.8518106
72	0x3dfc3cd0	0.123162866
73	0x3e88840c	0.26663244
74	0x3ed4f7a8	0.41595197
75	0xbf1a644c	-0.6030929
76	0xbf554b08	-0.83317614
77	0x3f74aa9c	0.9557283
78	0xbe8dd060	-0.2769804
79	0xbefe3a48	-0.4965384
80	0x3dbbe050	0.091736436
81	0x3de9c520	0.11414552
82	0x3f077490	0.52912235
83	0xbef65448	-0.48111176
84	0xbf3e8470	-0.74420834
85	0xbebad44c	-0.36490095
86	0x3e8f7ae4	0.28023446
87	0x3e24b1b0	0.16083407
88	0x3f106152	0.563985
89	0x3ee41464	0.44546807
90	0xbea98b6c	-0.33114183
91	0x3dd7ef40	0.1054368
92	0xbf1dd108	-0.6164708
93	0x3f271f96	0.6528257
94	0x3f09eb80	0.5387497
95	0xbf29d7c4	-0.6634486
96	0xbed00b48	-0.40633607
97	0x3f4ecb46	0.8077892
98	0xbd988af0	-0.07448375
99	0x3f527376	0.8220743
100	0xbdb44c80	-0.08803654
101	0xbf12d288	-0.57352495
102	0x3f7b5552	0.98177063
103	0xbeccedec	-0.4002527
104	0x3d87a600	0.06623459
105	0x3e647cc0	0.22313213
106	0x3e444b48	0.19169343
107	0xbe8daa5c	-0.27669036
108	0x3f1b131e	0.60576046
109	0x3f57e7d6	0.8433813
110	0xbe6c9ff8	-0.23107898
111	0x3d9679c0	0.07347441
112	0x3ea365f8	0.31913733
113	0x3e3b21a0	0.18274546
114	0x3f674442	0.9033853
115	0x3f60968e	0.8772973
116	0x3f0434b4	0.5164292
117	0x3ea0fd04	0.31443036
118	0xbe7c56e8	-0.24642527
119	0xbdbf2200	-0.09332657
120	0x3d2ce200	0.042207718
121	0xbf742f5a	-0.9538475
122	0x3e83e904	0.25763714
123	0xbf54f1e2	-0.83181584
124	0xbd65c9c0	-0.056100607
125	0x3ed71ef4	0.42015803
126	0x3eb286b8	0.34868407
127	0x3f532c0c	0.82489085
128	0x3f116756	0.56798303
129	0xbf063dbc	-0.5243795
130	0x3ec2641c	0.37967002
131	0xbf267c50	-0.65033436
132	0x3e01d038	0.12677085
133	0x3efa11b4	0.4884163
134	0x3b52c800	0.0032162666
135	0xbe834b20	-0.25643253
136	0xbf4e9898	-0.8070159
137	0x3e9ee108	0.3103106
138	0x3ea6ef5c	0.32604492
139	0x3ee0244c	0.43777692
140	0x3e87dde8	0.2653649
141	0xbdb357b0	-0.087569594
142	0x3f28f62a	0.66000617
143	0x3e3add30	0.18248439
144	0xbec33714	-0.3812796
145	0x3e0b7370	0.13618255
146	0x3f0ea010	0.55712986
147	0x3f4141ac	0.7549083
148	0xbe93d8cc	-0.2887634
149	0x3f176764	0.59142137
150	0x3f329fda	0.69775164
151	0xbf554d38	-0.8332095
152	0x3e492fa0	0.19647074
153	0x3e67c978	0.22635448
154	0xbea7058c	-0.3262142
155	0xbe29c7a8	-0.16580069
156	0x3f2f10a8	0.6838479
157	0x3f68e81c	0.9097917
158	0x3f43e8de	0.765272
159	0x3d5ec400	0.05438614
160	0xbeed9780	-0.46404648
161	0x3f6033a8	0.8757882
162	0x3f3c8f6a	0.7365633
163	0x3f497af6	0.7870325
164	0x3f3decb4	0.74189305
165	0x3f149f94	0.58055997
166	0x3de90080	0.113770485
167	0xbef2db88	-0.47433114
168	0x3f62dfa8	0.8862252
169	0x3eb49b78	0.35274863
170	0xbe8e71dc	-0.27821243
171	0xbf6db092	-0.9284755
172	0x3e952d6c	0.29136217
173	0xbd5c8860	-0.053840995
174	0x3f326f6e	0.6970128
175	0x3f7e11ac	0.99245715
176	0xbeff5850	-0.49872065
177	0xbf0eeed8	-0.55833197
178	0xbf2e7dfc	-0.68160987
179	0xbde8cc00	-0.11367035
180	0xbf79cb52	-0.9757587
181	0xbf5cff9e	-0.8632754
182	0xbcabb880	-0.020962
183	0x3f1aa17c	0.60402656
184	0xbf41fd22	-0.75776875
185	0x3e0d69b8	0.1380986
186	0xbd46e960	-0.048562407
187	0x3e9b9aa4	0.3039142
188	0x3ecde630	0.40214682
189	0xbedcdf7c	-0.43139255
190	0x3f034162	0.5127164
191	0xbf6109fc	-0.8790586
192	0x3efbdc5c	0.49191558
193	0xbf3b191e	-0.730852
194	0x3d94b590	0.07261193
195	0xbf08c494	-0.53424954
196	0xbb693000	-0.0035581589
197	0x3d5bf820	0.053703427
198	0xbf51b984	-0.819237
199	0x3f3236f2	0.6961509
200	0x3f4f952e	0.81087005
201	0x3f0b2018	0.54345846
202	0x3eae83a0	0.34084797
203	0xbe41c408	-0.18922436
204	0x3dfd58d0	0.12370455
205	0x3e8f7778	0.28020835
206	0x3e46b378	0.194044
207	0x3f43f01c	0.7653825
208	0x3f1725ca	0.59042037
209	0x3d3ef5c0	0.046621084
210	0x3ea5ac18	0.3235786
211	0x3f2b0c60	0.6681576
212	0xbf470e08	-0.77755785
213	0xbf24aa30	-0.64322186
214	0xbe8555c4	-0.26041996
215	0x3eac6d5c	0.33677185
216	0x3eafe5b0	0.34354925
217	0xbf14534c	-0.579396
218	0xbf51b4fa	-0.81916773
219	0x3e8e9428	0.2784741
220	0xbd1e3ec0	-0.03863406
221	0x3d0936e0	0.0334996
222	0x3eaa7fec	0.33300722
223	0x3f3e78ee	0.74403274
224	0xbf0434f2	-0.5164329
225	0xbf1dbe88	-0.6161885
226	0x3eaf7368	0.34267735
227	0x3f558738	0.8340945
228	0xbef1f9d8	-0.47260928
229	0xbe4046c0	-0.18776989
230	0xbc971640	-0.018443227
231	0x3f4fcc82	0.8117143
232	0xbeb1aaf4	-0.3470074
233	0xbf3bb3e6	-0.7332138
234	0x39c7c000	0.0003809929
235	0x3ef449e0	0.47712612
236	0xbf6a4f54	-0.91527295
237	0xbf1f49ee	-0.6222218
238	0xbd104c00	-0.03522873
239	0xbe909ad8	-0.28243136
240	0x3f7253f0	0.9465933
241	0xbf72e572	-0.94881356
242	0xbdfb8280	-0.1228075
243	0x3f62044a	0.88287795
244	0xbc859280	-0.016305208
245	0x3f536bf6	0.8258661
246	0x3e246910	0.16055703
247	0x3f60bc2c	0.8778713
248	0x3ecce8bc	0.40021312
249	0x3f72252a	0.9458796
250	0x3e4ebf50	0.20190167
251	0x3d95b720	0.07310319
252	0xbf2552c0	-0.6457939
253	0x3eed8154	0.46387732
254	0xbf2276dc	-0.63462615
255	0x3ed8a444	0.42312825

net.0.bias f4 [128]
0	0x00000000	0.0
1	0x00000000	0.0
2	0x00000000	0.0
3	0x00000000	0.0
4	0x00000000	0.0
5	0x00000000	0.0
6	0x00000000	0.0
7	0x00000000	0.0
8	0x00000000	0.0
9	0x00000000	0.0
10	0x00000000	0.0
11	0x00000000	0.0
12	0x00000000	0.0
13	0x00000000	0.0
14	0x00000000	0.0
15	0x00000000	0.0
16	0x00000000	0.0
17	0x00000000	0.0
18	0x00000000	0.0
19	0x00000000	0.0
20	0x00000000	0.0
21	0x00000000	0.0
22	0x00000000	0.0
23	0x00000000	0.0
24	0x00000000	0.0
25	0x00000000	0.0
26	0x00000000	0.0
27	0x00000000	0.0
28	0x00000000	0.0
29	0x00000000	0.0
30	0x00000000	0.0
31	0x00000000	0.0
32	0x00000000	0.0
33	0x00000000	0.0
34	0x00000000	0.0
35	0x00000000	0.0
36	0x00000000	0.0
37	0x00000000	0.0
38	0x00000000	0.0
39	0x00000000	0.0
40	0x00000000	0.0
41	0x00000000	0.0
42	0x00000000	0.0
43	0x00000000	0.0
44	0x00000000	0.0
45	0x00000000	0.0
46	0x00000000	0.0
47	0x00000000	0.0
48	0x00000000	0.0
49	0x00000000	0.0
50	0x00000000	0.0
51	0x00000000	0.0
52	0x00000000	0.0
53	0x00000000	0.0
54	0x00000000	0.0
55	0x00000000	0.0
56	0x00000000	0.0
57	0x00000000	0.0
58	0x00000000	0.0
59	0x00000000	0.0
60	0x00000000	0.0
61	0x00000000	0.0
62	0x00000000	0.0
63	0x00000000	0.0
64	0x00000000	0.0
65	0x00000000	0.0
66	0x00000000	0.0
67	0x00000000	0.0
68	0x00000000	0.0
69	0x00000000	0.0
70	0x00000000	0.0
71	0x00000000	0.0
72	0x00000000	0.0
73	0x00000000	0.0
74	0x00000000	0.0
75	0x00000000	0.0
76	0x00000000	0.0
77	0x00000000	0.0
78	0x00000000	0.0
79	0x00000000	0.0
80	0x00000000	0.0
81	0x00000000	0.0
82	0x00000000	0.0
83	0x00000000	0.0
84	0x00000000	0.0
85	0x00000000	0.0
86	0x00000000	0.0
87	0x00000000	0.0
88	0x00000000	0.0
89	0x00000000	0.0
90	0x00000000	0.0
91	0x00000000	0.0
92	0x00000000	0.0
93	0x00000000	0.0
94	0x00000000	0.0
95	0x00000000	0.0
96	0x00000000	0.0
97	0x00000000	0.0
98	0x00000000	0.0
99	0x00000000	0.0
100	0x00000000	0.0
101	0x00000000	0.0
102	0x00000000	0.0
103	0x00000000	0.0
104	0x00000000	0.0
105	0x00000000	0.0
106	0x00000000	0.0
107	0x00000000	0.0
108	0x00000000	0.0
109	0x00000000	0.0
110	0x00000000	0.0
111	0x00000000	0.0
112	0x00000000	0.0
113	0x00000000	0.0
114	0x00000000	0.0
115	0x00000000	0.0
116	0x00000000	0.0
117	0x00000000	0.0
118	0x00000000	0.0
119	0x00000000	0.0
120	0x00000000	0.0
121	0x00000000	0.0
122	0x00000000	0.0
123	0x00000000	0.0
124	0x00000000	0.0
125	0x00000000	0.0
126	0x00000000	0.0
127	0x00000000	0.0

net.2.weight f4 [128, 128]
0	0xbde7c7e8	-0.11317426
1	0xbde44a32	-0.11146964
2	0x3dd8f567	0.10593682
3	0x3da2b5c0	0.07944822
4	0xbd902ccc	-0.07039794
5	0xbe126d7f	-0.14299582
6	0x3d4c5bdd	0.049892295
7	0x3d7f76c6	0.06236913
8	0x3e11e6e0	0.14248228
9	0x3e486b7c	0.19572252
10	0x3df5c5aa	0.12000592
11	0x3e2eb119	0.17059745
12	0x3e38e9ef	0.18057989
13	0xbe5b4bb4	-0.21415597
14	0xbd703ebe	-0.058653586
15	0x3da505ec	0.0805777
16	0xbd55d223	-0.052202355
17	0x3e1d4121	0.15356876
18	0x3e4635f8	0.19356525
19	0xbd3731fb	-0.0447254
20	0xbe43a9de	-0.19107768
21	0xbe1750b8	-0.14776886
22	0xbbceaf8e	-0.006307549
23	0x3e4a5f1d	0.19762845
24	0xbdbc01f8	-0.09180063
25	0xbd8360fa	-0.06414981
26	0xbe1d215a	-0.15344754
27	0xbd349d5e	-0.04409539
28	0x3d5b1c77	0.053493943
29	0xbe11946e	-0.14216778
30	0x3df077a1	0.117415674
31	0x3d0e2c81	0.03471041
32	0xbe51df60	-0.20495367
33	0xbcbe9cf5	-0.023268202
34	0x3e5d010c	0.2158243
35	0xbdbeeee4	-0.093229085
36	0xbd89917a	-0.067172006
37	0xbe09e951	-0.1346791
38	0xbdb90ad5	-0.09035269
39	0xbe12bc05	-0.14329536
40	0xbdf5e805	-0.12007145
41	0x3e4eea9e	0.20206687
42	0x3d8b7bad	0.06810699
43	0x3e4766b2	0.19472769
44	0xbdac89cc	-0.0842472
45	0xbe2d93da	-0.16950932
46	0x3d969b5e	0.07353853
47	0x3e37db85	0.17954834
48	0x3de1172e	0.10990749
49	0xbdceb539	-0.10093159
50	0xbd335d81	-0.043790344
51	0xbe37441a	-0.17897072
52	0x3d97de38	0.07415432
53	0x3db1324a	0.0865217
54	0xbe49d00b	-0.19708268
55	0x3d57628a	0.05258421
56	0xbd05b415	-0.032642443
57	0x3ccd0656	0.025027435
58	0xbb0dce7c	-0.0021637967
59	0xbb63a0af	-0.0034733226
60	0xbb6856a0	-0.0035452023
61	0xbc80a1c0	-0.015702128
62	0xbe31324f	-0.17304347
63	0x3dc9b393	0.09848704
64	0xbd9ba601	-0.07600022
65	0x3db8a20b	0.09015282
66	0xbe3ed2e0	-0.1863513
67	0x3d17b8a5	0.037041325
68	0x3e072524	0.13197762
69	0xbd5fa396	-0.054599367
70	0x3dcc6120	0.099794626
71	0x3ca327f9	0.019916521
72	0xbdb4ca78	-0.0882768
73	0xbb98cc34	-0.004663015
74	0x3e5da350	0.2164433
75	0xbc8200b5	-0.015869478
76	0xbd21f33c	-0.039538607
77	0xbddbcb14	-0.107320935
78	0x3c8ae4c9	0.016954796
79	0x3e518de3	0.20464282
80	0xbe44e6dc	-0.19228691
81	0xb9e25807	-0.00043171665
82	0xbe072cf1	-0.13200738
83	0xbdfba47d	-0.12287233
84	0x3e5086dc	0.20363945
85	0xbe25b502	-0.1618233
86	0x3da1105d	0.07864449
87	0x3ceb45d9	0.02871983
88	0xbdce0e6f	-0.10061347
89	0xbcd5073e	-0.02600443
90	0x3e3a1cbb	0.18175022
91	0x3e1e641d	0.15467878
92	0x3d84a2d3	0.06476369
93	0x3dab1576	0.08353703
94	0x3d0401a3	0.032228123
95	0xbdc24a46	-0.09486823
96	0x3b9d3433	0.0047974824
97	0xbdd438a8	-0.10362369
98	0xbe303fcb	-0.17211835
99	0xbdf8703a	-0.121307805
100	0xbe524f48	-0.20538056
101	0xbd9a3995	-0.07530514
102	0xbe26a1d2	-0.16272667
103	0xbe190061	-0.14941551
104	0xbd5be971	-0.053689424
105	0x3d9c6111	0.076357014
106	0x3dd976e3	0.10618379
107	0xbe43b774	-0.1911295
108	0x3dd44633	0.10364952
109	0x3cfc3abf	0.030789731
110	0x3dd4693f	0.103716366
111	0x3e493d65	0.19652326
112	0xbe1da039	-0.15393151
113	0x3e4b0126	0.19824657
114	0x3c9c27a0	0.019061863
115	0xbe054d6b	-0.13017814
116	0xbd25b811	-0.040458743
117	0x3dd362c6	0.10321574
118	0x3db4273c	0.08796546
119	0x3d48047b	0.048832398
120	0x3e549504	0.2075997
121	0xbe031b64	-0.12803417
122	0xbc7456d9	-0.014913284
123	0xbdb3ee9b	-0.08785745
124	0x3dd09708	0.10185057
125	0xbe52da36	-0.20591053
126	0x3db51cd9	0.08843393
127	0xbe13938f	-0.14411758
128	0xbe17ff80	-0.1484356
129	0x3e5933fe	0.2121124
130	0x3d3e82f3	0.0465116
131	0x3d3d7fe7	0.046264555
132	0xbce721d5	-0.028214375
133	0xbdcc1f3e	-0.099668965
134	0xbcdd2144	-0.026993401
135	0x3dd223c0	0.10260725
136	0xbde9f2f6	-0.11423294
137	0xbd98d57f	-0.07462596
138	0xbe582928	-0.2110945
139	0x3cd1fc6a	0.025633056
140	0x3e589dca	0.21153942
141	0xbe15e22f	-0.14637063
142	0xbd83531b	-0.064123355
143	0xbde76570	-0.112986445
144	0x3cf0ed23	0.02940995
145	0xbd8867c4	-0.06660417
146	0xbde782d7	-0.113042526
147	0xbdccda81	-0.10002614
148	0x3d95a082	0.07306005
149	0x3dac31fe	0.08407973
150	0xbe26fa81	-0.16306497
151	0xbda877dd	-0.08225987
152	0xbd4a80b6	-0.049439155
153	0xbd97f436	-0.074196264
154	0x3d767fba	0.060180403
155	0x3e3073c7	0.17231666
156	0x3db4c02f	0.088257186
157	0xbe1331db	-0.14374487
158	0x3e446d05	0.19182213
159	0x3e31a64f	0.17348598
160	0xbdb5f978	-0.08885473
161	0xbdc56ed3	-0.09640279
162	0xbd68f7a6	-0.0568768
163	0xbe52279d	-0.20522924
164	0x3e07e170	0.13269591
165	0xbe28c7ce	-0.1648247
166	0xbe128559	-0.1430868
167	0xbe5c8534	-0.21535188
168	0xbda91874	-0.08256617
169	0x3dea3227	0.11435347
170	0xbdeecdca	-0.11660345
171	0xbd89ba1d	-0.067249514
172	0xbe121596	-0.14266047
173	0x3e219bb9	0.1578206
174	0xba756737	-0.00093613885
175	0x3e52e5be	0.20595452
176	0x3d480976	0.048837148
177	0x3e5b54b4	0.2141903
178	0x3dff65ab	0.124705635
179	0x3d772197	0.06033477
180	0xbdbda404	-0.09259799
181	0xbe590770	-0.21194243
182	0x3daea972	0.08528413
183	0xbd9a7902	-0.07542612
184	0xbd065a25	-0.032800812
185	0xbdfaa9f7	-0.122394495
186	0xbe1365dd	-0.14394327
187	0x3e3a6bdc	0.18205208
188	0xbd878e96	-0.06618993
189	0x3ce5be99	0.028044986
190	0x3e21ee8f	0.15813659
191	0xbdc74753	-0.09730401
192	0xbe1a519c	-0.15070194
193	0x3d962340	0.07330942
194	0x3ac66cb8	0.0015138602
195	0x3d5669b1	0.05234689
196	0xbe55e80f	-0.20889305
197	0xbe41f483	-0.1894093
198	0x3bb49caa	0.00551184
199	0xbdd5cb7e	-0.10439204
200	0x3c2d8cba	0.010592634
201	0xbdf5f213	-0.120090626
202	0x3e052634	0.13002855
203	0xbe5d5215	-0.21613343
204	0x3dfe9c47	0.12432151
205	0x3e559430	0.2085731
206	0x3e1fb36a	0.15595785
207	0x3dbbb576	0.0916547
208	0xbdc29ab5	-0.09502164
209	0x3d407b69	0.046992693
210	0x3c87b117	0.016563935
211	0xbe5ce90b	-0.21573274
212	0x3ddad8c4	0.10685876
213	0xbd2e3161	-0.04252756
214	0xbd59275c	-0.05301605
215	0x3e383ed7	0.17992721
216	0x3ddbbdd4	0.10729566
217	0x3de497d0	0.111617684
218	0xbd9bb75a	-0.07603331
219	0x3e032afe	0.12809369
220	0x3c053ca0	0.00813213
221	0x3ddb2d23	0.107019685
222	0xbe514495	-0.20436318
223	0x3e013d8c	0.12621135
224	0x3b5a89ac	0.003334622
225	0xbdafef01	-0.08590508
226	0x3e183f93	0.14868002
227	0xbe2b7b4f	-0.16746257
228	0xbe43a923	-0.1910749
229	0xbd1cee1b	-0.038313013
230	0xbdb9b6d5	-0.090680756
231	0x3e0a0a5d	0.13480516
232	0x3dd6637b	0.10468193
233	0x3e16d37c	0.14729112
234	0x3dec973b	0.115522824
235	0xbe3955ab	-0.18099086
236	0x3e22ccdd	0.15898462
237	0xbd99eda1	-0.07516027
238	0x3e344a08	0.17606366
239	0x3e5094af	0.20369218
240	0x3e5a2f5d	0.2130713
241	0xbdcc6b2e	-0.099813804
242	0x3e5154aa	0.20442453
243	0x3e4d117c	0.20026201
244	0x3e06fee4	0.1318317
245	0x3da88259	0.08227987
246	0x3e1c3bfd	0.15257259
247	0xbe4d5866	-0.20053253
248	0x3e2fb44c	0.17158622
249	0xbe3f338c	-0.18672007
250	0xbd3f24ae	-0.04666584
251	0xbab6fb50	-0.0013960395
252	0xbdc45799	-0.095870204
253	0x3e404570	0.18776488
254	0xbd770410	-0.06030661
255	0x3e5ad051	0.21368529

net.2.bias f4 [128]
0	0x00000000	0.0
1	0x00000000	0.0
2	0x00000000	0.0
3	0x00000000	0.0
4	0x00000000	0.0
5	0x00000000	0.0
6	0x00000000	0.0
7	0x00000000	0.0
8	0x00000000	0.0
9	0x00000000	0.0
10	0x00000000	0.0
11	0x00000000	0.0
12	0x00000000	0.0
13	0x00000000	0.0
14	0x00000000	0.0
15	0x00000000	0.0
16	0x00000000	0.0
17	0x00000000	0.0
18	0x00000000	0.0
19	0x00000000	0.0
20	0x00000000	0.0
21	0x00000000	0.0
22	0x00000000	0.0
23	0x00000000	0.0
24	0x00000000	0.0
25	0x00000000	0.0
26	0x00000000	0.0
27	0x00000000	0.0
28	0x00000000	0.0
29	0x00000000	0.0
30	0x00000000	0.0
31	0x00000000	0.0
32	0x00000000	0.0
33	0x00000000	0.0
34	0x00000000	0.0
35	0x00000000	0.0
36	0x00000000	0.0
37	0x00000000	0.0
38	0x00000000	0.0
39	0x00000000	0.0
40	0x00000000	0.0
41	0x00000000	0.0
42	0x00000000	0.0
43	0x00000000	0.0
44	0x00000000	0.0
45	0x00000000	0.0
46	0x00000000	0.0
47	0x00000000	0.0
48	0x00000000	0.0
49	0x00000000	0.0
50	0x00000000	0.0
51	0x00000000	0.0
52	0x00000000	0.0
53	0x00000000	0.0
54	0x00000000	0.0
55	0x00000000	0.0
56	0x00000000	0.0
57	0x00000000	0.0
58	0x00000000	0.0
59	0x00000000	0.0
60	0x00000000	0.0
61	0x00000000	0.0
62	0x00000000	0.0
63	0x00000000	0.0
64	0x00000000	0.0
65	0x00000000	0.0
66	0x00000000	0.0
67	0x00000000	0.0
68	0x00000000	0.0
69	0x00000000	0.0
70	0x00000000	0.0
71	0x00000000	0.0
72	0x00000000	0.0
73	0x00000000	0.0
74	0x00000000	0.0
75	0x00000000	0.0
76	0x00000000	0.0
77	0x00000000	0.0
78	0x00000000	0.0
79	0x00000000	0.0
80	0x00000000	0.0
81	0x00000000	0.0
82	0x00000000	0.0
83	0x00000000	0.0
84	0x00000000	0.0
85	0x00000000	0.0
86	0x00000000	0.0
87	0x00000000	0.0
88	0x00000000	0.0
89	0x00000000	0.0
90	0x00000000	0.0
91	0x00000000	0.0
92	0x00000000	0.0
93	0x00000000	0.0
94	0x00000000	0.0
95	0x00000000	0.0
96	0x00000000	0.0
97	0x00000000	0.0
98	0x00000000	0.0
99	0x00000000	0.0
100	0x00000000	0.0
101	0x00000000	0.0
102	0x00000000	0.0
103	0x00000000	0.0
104	0x00000000	0.0
105	0x00000000	0.0
106	0x00000000	0.0
107	0x00000000	0.0
108	0x00000000	0.0
109	0x00000000	0.0
110	0x00000000	0.0
111	0x00000000	0.0
112	0x00000000	0.0
113	0x00000000	0.0
114	0x00000000	0.0
115	0x00000000	0.0
116	0x00000000	0.0
117	0x00000000	0.0
118	0x00000000	0.0
119	0x00000000	0.0
120	0x00000000	0.0
121	0x00000000	0.0
122	0x00000000	0.0
123	0x00000000	0.0
124	0x00000000	0.0
125	0x00000000	0.0
126	0x00000000	0.0
127	0x00000000	0.0

net.4.weight f4 [128, 128]
0	0xbbf23f6e	-0.0073928153
1	0xbde8bcfe	-0.113641724
2	0xbddf96cc	-0.10917434
3	0xbe328fb9	-0.17437638
4	0xbd67adc0	-0.056562185
5	0xbe1bf2cf	-0.15229343
6	0xbdad30d2	-0.08456577
7	0x3c9800e7	0.018555118
8	0xbd8d5c1a	-0.069023326
9	0x3e57b814	0.21066314
10	0x3d0fe2a8	0.035128266
11	0x3de54add	0.1119592
12	0xbdc3849a	-0.09546776
13	0x3d501ac5	0.05080678
14	0x3e34625e	0.17615649
15	0xbd875bfa	-0.0660934
16	0x3e0e2c57	0.13884102
17	0xbd6d85ea	-0.05798904
18	0xbe1d63da	-0.15370122
19	0x3e544b69	0.20731892
20	0x3e0df3c4	0.1386252
21	0x3dc02209	0.09381492
22	0x3e27c5c9	0.16384043
23	0xbe1cf8d6	-0.15329298
24	0xbdb43c93	-0.08800616
25	0x3d786f41	0.060652975
26	0xbe5c7b20	-0.21531343
27	0xbd1a053e	-0.037602656
28	0xbd5fe16d	-0.054658342
29	0xbe398361	-0.18116523
30	0x3e5301de	0.20606181
31	0xbe594db0	-0.21221042
32	0xbdb7fd1b	-0.08983823
33	0x3e549a90	0.20762086
34	0xbe09cad0	-0.13456273
35	0x3d1edcb0	0.038784683
36	0x3e521928	0.20517409
37	0xbe1b8337	-0.15186773
38	0x3d999ab5	0.07500211
39	0x3d8b9ca7	0.068169884
40	0xbc5f83d0	-0.013642266
41	0x3e016fe6	0.12640342
42	0xbda19d41	-0.07891322
43	0x3e055b75	0.1302317
44	0x3d16de3e	0.03683304
45	0xbe2aefb4	-0.16693002
46	0x3dd4ed05	0.103967704
47	0xbd0aa1f7	-0.033845868
48	0xbc6e1fbe	-0.014533935
49	0xbd2d1d4e	-0.042264275
50	0xbdcf4366	-0.10120277
51	0xbddcb422	-0.10776545
52	0x3ddca0c1	0.10772849
53	0x3c6bb9d7	0.014387569
54	0xbdced0f0	-0.100984454
55	0xbdcc8456	-0.099861786
56	0xbdb0555f	-0.08610033
57	0x3e433346	0.19062528
58	0x3e1436ad	0.14473982
59	0xbcb8d5d7	-0.022562904
60	0xbe52dc80	-0.20591927
61	0xbe5a7852	-0.21334961
62	0x3e0f191b	0.1397442
63	0xbdb526d9	-0.088453
64	0x3e07c258	0.1325773
65	0x3d5045a3	0.05084766
66	0x3d5b0c94	0.053478792
67	0x3dfad1cd	0.122470476
68	0x3e4bec56	0.19914374
69	0xbe54aa4f	-0.20768093
70	0x3e59ceb3	0.21270256
71	0x3e2bdc7c	0.16783327
72	0x3d4a0caa	0.049328484
73	0xbe24b49c	-0.16084522
74	0x3c21f8c1	0.009885968
75	0xbbba3434	-0.0056824926
76	0xbda0dc4b	-0.078545175
77	0xbe20abe7	-0.15690576
78	0xbdeb31fb	-0.114841424
79	0x3cb1bde5	0.021696994
80	0x3e0a8c28	0.13530028
81	0xbe5c898c	-0.21536845
82	0x3e3a66e4	0.18203312
83	0x3dc8f32e	0.09812008
84	0x3ddee204	0.10882953
85	0xbd11453e	-0.035466425
86	0x3bdfa55f	0.0068251337
87	0x3e5255a6	0.20540485
88	0xbe1f0967	-0.1553093
89	0xbd5809c3	-0.052743685
90	0x3db9dae5	0.09074954
91	0xbdc4dd17	-0.09612482
92	0xbd9d58ca	-0.07682951
93	0x3da79bc8	0.0818401
94	0xbe171c4c	-0.14756888
95	0x3e21a9ef	0.15787481
96	0x3e0991c3	0.1343451
97	0x3c015b4c	0.007895302
98	0xbe4f5f62	-0.2025123
99	0xbe4d9a91	-0.20078494
100	0x3d96eb57	0.07369106
101	0x3e155bec	0.14585847
102	0xbdc1e70f	-0.09467899
103	0x3e325fe9	0.174194
104	0x3e44af10	0.19207406
105	0xbda27c83	-0.07933905
106	0xbe27640d	-0.1634676
107	0x3c99b9fb	0.01876544
108	0xbd74d2f6	-0.0597715
109	0xbd171581	-0.036885742
110	0x3c733e0a	0.014846334
111	0x3e50863d	0.20363708
112	0x3d81fe2a	0.06347306
113	0x3e484de8	0.19560969
114	0xbe39121c	-0.18073314
115	0x3e01833a	0.12647715
116	0x3da78d7b	0.08181282
117	0xbe506051	-0.20349242
118	0x3e115eb9	0.1419629
119	0xbd80e294	-0.06293216
120	0xbe0ca58e	-0.13735029
121	0xbcf93276	-0.03041957
122	0xbdf1626e	-0.11786352
123	0xbe027c18	-0.1274265
124	0x3dc85e47	0.09783607
125	0x3e559d4d	0.20860787
126	0xbd914dc1	-0.070949085
127	0x3d9398f9	0.072069116
128	0xbe574dcb	-0.2102577
129	0xbd84bf0a	-0.0648175
130	0xbe4197b9	-0.18905534
131	0xbd61ed2e	-0.055157833
132	0xbe35a3e3	-0.17738299
133	0x3cdcb827	0.02694328
134	0x3dae82cd	0.08521042
135	0xbda35334	-0.07974854
136	0x3e3e6a1f	0.1859517
137	0xbde6c7d5	-0.11268584
138	0xbd4f10a1	-0.050552968
139	0xbb90541b	-0.0044045574
140	0xbd140165	-0.036134142
141	0x3da961da	0.08270617
142	0xbd6a4c30	-0.057201564
143	0xbd9fc56b	-0.07801326
144	0x3e1ed9d0	0.15512776
145	0x3d5f24e0	0.054478526
146	0xbd341c99	-0.043972585
147	0x3a7e0262	0.0009689686
148	0x3e5af09a	0.21380845
149	0xbe3865cb	-0.18007581
150	0xbdd31d70	-0.10308349
151	0xbd20e03e	-0.039276354
152	0x3e087060	0.13324118
153	0xbe5a15f7	-0.21297441
154	0xbd30e703	-0.04318906
155	0xbe37ce97	-0.17949902
156	0xbe591d78	-0.21202648
157	0x3ad7bc2c	0.0016459278
158	0xbb8fe95f	-0.0043918337
159	0x3d76d55a	0.06026206
160	0xbe1eb534	-0.15498811
161	0x3e45443f	0.19264315
162	0x3dd9ee4a	0.10641153
163	0x3ca8f055	0.020622412
164	0xbe52abaf	-0.20573305
165	0xbe318c16	-0.17338595
166	0xbd04eed2	-0.03245432
167	0x3da1a25b	0.07892295
168	0xbcac4b45	-0.021031985
169	0xbd971c95	-0.073784985
170	0xbe02b0ea	-0.127628
171	0x3d812acc	0.06306991
172	0x3e52f7c2	0.20602325
173	0xbde02b3a	-0.10945745
174	0xbe19f032	-0.15033033
175	0xbde67a03	-0.11253741
176	0x3e5b24ac	0.21400708
177	0xbdd13e2c	-0.102169365
178	0xbe1759ff	-0.14780425
179	0x3e0ddab1	0.13852955
180	0xbe5a96bb	-0.21346562
181	0x3d6f01a4	0.058351174
182	0xbe1cdce3	-0.15318637
183	0xbe3987b2	-0.1811817
184	0x3d296b87	0.04136231
185	0xbdb8e9cd	-0.09028969
186	0xbded0260	-0.115727186
187	0xbd9f8cbc	-0.07790515
188	0xbd1163e7	-0.035495665
189	0x3e2b05f6	0.16701493
190	0x3e3f6d52	0.18694046
191	0x3da2c80f	0.079483144
192	0xbe0b4f4c	-0.13604468
193	0xbe0b538a	-0.13606086
194	0x3e42fba0	0.190413
195	0xbe029f55	-0.12756093
196	0x3da0d2e0	0.07852721
197	0xbddedec8	-0.10882336
198	0x3bd8e9fb	0.0066196895
199	0xbe3d5a5b	-0.18491499
200	0x3d3ebdd0	0.046567738
201	0xbc992e55	-0.01869885
202	0x3dd8b6a1	0.10581709
203	0x3e15b7bd	0.14620872
204	0xbde25b88	-0.110526145
205	0xbe2c8c3f	-0.16850375
206	0xbd0de70f	-0.034644183
207	0x3ddc0bc6	0.10744433
208	0x3ca9e55d	0.020739252
209	0xbe4f8055	-0.20263799
210	0x3e313de4	0.17308766
211	0xbdba65a6	-0.09101419
212	0x3da4ec52	0.08052887
213	0x3d5afe43	0.05346514
214	0x3e44b7a9	0.19210686
215	0xbd807799	-0.062728114
216	0x3dc4ca2f	0.09608876
217	0x3e4d8374	0.20069677
218	0xbe47de1b	-0.1951832
219	0xbe06f95a	-0.13181058
220	0xbe125c61	-0.14293052
221	0x3e0fd5b5	0.14046367
222	0xbdffcc2c	-0.124901146
223	0xbd486334	-0.048922732
224	0x3dd481f5	0.1037635
225	0xbdf8393c	-0.121202916
226	0xbbb6932c	-0.0055717435
227	0x3d213afd	0.039362896
228	0x3e412dc4	0.18865114
229	0xbc3382fd	-0.010956523
230	0x3cac4256	0.021027725
231	0xbe04e82b	-0.1297919
232	0x3e171795	0.1475509
233	0x3cc67bfc	0.024229042
234	0xbd46bcd4	-0.048519924
235	0xbe0b4f05	-0.13604362
236	0x3df35e65	0.11883239
237	0xbde69169	-0.112582035
238	0xbe349bbc	-0.17637533
239	0xbd816bc7	-0.06319385
240	0x3d31d40f	0.043415125
241	0xbc6b5e0b	-0.014365683
242	0xbdac87be	-0.08424328
243	0x3e0ace76	0.13555321
244	0xbddd32b5	-0.10800687
245	0xbe0adf88	-0.13561833
246	0xbcdea0ce	-0.027176287
247	0xbe59c7bd	-0.212676
248	0x3e2fcb2a	0.17167345
249	0xbd8406d5	-0.064466156
250	0xbdea9484	-0.11454108
251	0x3db08940	0.08619928
252	0x3d242d29	0.04008213
253	0x3dd20208	0.10254294
254	0xbe3044b3	-0.17213707
255	0x3cac450b	0.021029016

net.4.bias f4 [128]
0	0x00000000	0.0
1	0x00000000	0.0
2	0x00000000	0.0
3	0x00000000	0.0
4	0x00000000	0.0
5	0x00000000	0.0
6	0x00000000	0.0
7	0x00000000	0.0
8	0x00000000	0.0
9	0x00000000	0.0
10	0x00000000	0.0
11	0x00000000	0.0
12	0x00000000	0.0
13	0x00000000	0.0
14	0x00000000	0.0
15	0x00000000	0.0
16	0x00000000	0.0
17	0x00000000	0.0
18	0x00000000	0.0
19	0x00000000	0.0
20	0x00000000	0.0
21	0x00000000	0.0
22	0x00000000	0.0
23	0x00000000	0.0
24	0x00000000	0.0
25	0x00000000	0.0
26	0x00000000	0.0
27	0x00000000	0.0
28	0x00000000	0.0
29	0x00000000	0.0
30	0x00000000	0.0
31	0x00000000	0.0
32	0x00000000	0.0
33	0x00000000	0.0
34	0x00000000	0.0
35	0x00000000	0.0
36	0x00000000	0.0
37	0x00000000	0.0
38	0x00000000	0.0
39	0x00000000	0.0
40	0x00000000	0.0
41	0x00000000	0.0
42	0x00000000	0.0
43	0x00000000	0.0
44	0x00000000	0.0
45	0x00000000	0.0
46	0x00000000	0.0
47	0x00000000	0.0
48	0x00000000	0.0
49	0x00000000	0.0
50	0x00000000	0.0
51	0x00000000	0.0
52	0x00000000	0.0
53	0x00000000	0.0
54	0x00000000	0.0
55	0x00000000	0.0
56	0x00000000	0.0
57	0x00000000	0.0
58	0x00000000	0.0
59	0x00000000	0.0
60	0x00000000	0.0
61	0x00000000	0.0
62	0x00000000	0.0
63	0x00000000	0.0
64	0x00000000	0.0
65	0x00000000	0.0
66	0x00000000	0.0
67	0x00000000	0.0
68	0x00000000	0.0
69	0x00000000	0.0
70	0x00000000	0.0
71	0x00000000	0.0
72	0x00000000	0.0
73	0x00000000	0.0
74	0x00000000	0.0
75	0x00000000	0.0
76	0x00000000	0.0
77	0x00000000	0.0
78	0x00000000	0.0
79	0x00000000	0.0
80	0x00000000	0.0
81	0x00000000	0.0
82	0x00000000	0.0
83	0x00000000	0.0
84	0x00000000	0.0
85	0x00000000	0.0
86	0x00000000	0.0
87	0x00000000	0.0
88	0x00000000	0.0
89	0x00000000	0.0
90	0x00000000	0.0
91	0x00000000	0.0
92	0x00000000	0.0
93	0x00000000	0.0
94	0x00000000	0.0
95	0x00000000	0.0
96	0x00000000	0.0
97	0x00000000	0.0
98	0x00000000	0.0
99	0x00000000	0.0
100	0x00000000	0.0
101	0x00000000	0.0
102	0x00000000	0.0
103	0x00000000	0.0
104	0x00000000	0.0
105	0x00000000	0.0
106	0x00000000	0.0
107	0x00000000	0.0
108	0x00000000	0.0
109	0x00000000	0.0
110	0x00000000	0.0
111	0x00000000	0.0
112	0x00000000	0.0
113	0x00000000	0.0
114	0x00000000	0.0
115	0x00000000	0.0
116	0x00000000	0.0
117	0x00000000	0.0
118	0x00000000	0.0
119	0x00000000	0.0
120	0x00000000	0.0
121	0x00000000	0.0
122	0x00000000	0.0
123	0x00000000	0.0
124	0x00000000	0.0
125	0x00000000	0.0
126	0x00000000	0.0
127	0x00000000	0.0

net.6.weight f4 [64, 128]
0	0x3dca9b27	0.09892874
1	0xbe1dbc9d	-0.15403982
2	0x3d9c05b3	0.076182745
3	0x3e19aae1	0.15006591
4	0x3db7fd37	0.08983844
5	0x3e48bb5d	0.19602723
6	0xbcfa1856	-0.030529182
7	0xbdca780a	-0.09886177
8	0xbe1c77cb	-0.15280072
9	0xbdb0efe0	-0.086395025
10	0xbdc19df6	-0.09453957
11	0xbdb55b87	-0.08855348
12	0x3d665e23	0.05624212
13	0x3d269fcf	0.04067975
14	0x3c974de8	0.018469766
15	0xbe486ef3	-0.19573574
16	0x3c16a647	0.009194917
17	0xbcffb7f1	-0.03121564
18	0x3e51de50	0.20494962
19	0xbe39b1cc	-0.1813423
20	0xbe073a14	-0.13205749
21	0x3e0df0fa	0.13861457
22	0xbd65acbd	-0.05607294
23	0xbd613688	-0.054983646
24	0xbe0073fc	-0.12544245
25	0xbe2dea8b	-0.16984002
26	0x3d3bd5b5	0.045858104
27	0xbd8827d5	-0.06648222
28	0x3e45d5b1	0.19319798
29	0xbdbf5fb5	-0.093444265
30	0x3c6c3670	0.014417276
31	0xbd80f07d	-0.062958695
32	0x3e2cd60e	0.1687853
33	0x3ca036b1	0.019557329
34	0x3e214032	0.15747145
35	0xbdf29350	-0.11844504
36	0x3e4d6b64	0.20060498
37	0xbade90ad	-0.0016980373
38	0x3e1f4c22	0.15556386
39	0x3e54f04e	0.20794794
40	0x3e037b1e	0.12839934
41	0xbd291f5f	-0.041289683
42	0x3dfcad39	0.12337727
43	0xbe38feae	-0.18065903
44	0x3dd8e9df	0.10591482
45	0xbe1b732a	-0.1518065
46	0x3dd429ef	0.10359561
47	0xbe2f9af5	-0.17148955
48	0x3bf92f6e	0.007604531
49	0xbc0afcc3	-0.008483115
50	0xbe48072b	-0.19533984
51	0xbc105e9c	-0.008811619
52	0xbca8c14c	-0.020599984
53	0xbd360031	-0.044433776
54	0x3de88575	0.1135358
55	0x3e3e3d26	0.18578014
56	0xbe2a6be5	-0.16642721
57	0xbc715b1f	-0.014731198
58	0xbe1c424a	-0.15259662
59	0x3e4e4855	0.2014478
60	0x3dfe73f8	0.12424463
61	0xbe0b81f6	-0.13623795
62	0x3e06b2fb	0.13154213
63	0xbe352042	-0.17688087
64	0x3db67de7	0.08910733
65	0x3e30127f	0.17194556
66	0xbb47e11c	-0.0030499166
67	0xbe5a97de	-0.21346995
68	0xbe35dfcb	-0.17761151
69	0x3e0a67a1	0.13516094
70	0xbe34cf6d	-0.17657252
71	0xbe3fc54d	-0.18727608
72	0xbda3cfab	-0.07998594
73	0x3e2acd58	0.16679895
74	0x3db90757	0.09034603
75	0xbd83da88	-0.06438166
76	0xbe49764d	-0.19674034
77	0xbe2b1fc7	-0.16711341
78	0xbe0c9efa	-0.1373252
79	0x3e579e7a	0.21056548
80	0xbdbce22a	-0.09222825
81	0x3c4bc386	0.012436753
82	0xbd40db83	-0.047084343
83	0x3df24cf2	0.118310824
84	0xbc92a216	-0.017899554
85	0x3d4c560b	0.049886744
86	0x3d8a2082	0.067444816
87	0xbd0292fc	-0.031878456
88	0x3d04e07a	0.03244064
89	0xbe57f8b3	-0.21090965
90	0xbdbf37b1	-0.09336794
91	0x3e4a6953	0.1976674
92	0xbe2f79a1	-0.17136241
93	0x3ddc6453	0.10761323
94	0xbc9f58b8	-0.019451484
95	0xbda696d7	-0.08134239
96	0xbdc16b31	-0.09444273
97	0xbd6c2085	-0.0576482
98	0xbe39a185	-0.18128021
99	0x3cffa3c1	0.031206014
100	0x3e236af9	0.15958776
101	0xbd9a1633	-0.075237654
102	0x3d2620b8	0.040558547
103	0xbd9cc8bf	-0.07655477
104	0xbe55d443	-0.20881753
105	0x3cbd673f	0.02312052
106	0xbe4d3d5b	-0.20042937
107	0x3e23cc06	0.15995798
108	0xbd5e6876	-0.05429884
109	0x3e3a203e	0.18176362
110	0x3e535a1a	0.2063984
111	0xbe4bfcfe	-0.19920728
112	0x3c9602fa	0.018311966
113	0xbd863209	-0.06552512
114	0xbe2d0f3f	-0.16900347
115	0x3dc2121e	0.09476112
116	0x3df55dc5	0.11980776
117	0xbdfcedbe	-0.12350033
118	0xbe361344	-0.17780787
119	0x3bcaf376	0.0061935736
120	0x3e2022aa	0.15638223
121	0xbe441339	-0.19147958
122	0x3d09a577	0.033605065
123	0xbd4f0f8c	-0.050551936
124	0x3e50a4bb	0.2037534
125	0xbe216ee5	-0.15764959
126	0x3e33f6f9	0.17574681
127	0x3de27564	0.11057547
128	0x3e309569	0.17244495
129	0x3d92e9a4	0.0717347
130	0xbe213c40	-0.1574564
131	0x3dee31b7	0.11630576
132	0xbd42659c	-0.047460184
133	0xbe507a41	-0.20359136
134	0xbdbcc546	-0.092173144
135	0xbd16a802	-0.03678132
136	0x3d4862a9	0.048922215
137	0x3d46d775	0.04854532
138	0x3e5440b8	0.20727813
139	0xbe004449	-0.12526049
140	0x3dbd8751	0.09254325
141	0xbe1ee008	-0.15515149
142	0x3e1bccee	0.15214893
143	0x3c69d089	0.01427091
144	0x3e0e05dd	0.13869424
145	0x3e18596a	0.14877859
146	0x3e4970ba	0.19671908
147	0xbb94dccc	-0.0045429226
148	0xbe084209	-0.1330644
149	0x3e59b735	0.21261294
150	0xbd9a939f	-0.07547688
151	0xbdc49316	-0.09598367
152	0x3d1809ea	0.03711883
153	0x3e3d9a48	0.18515885
154	0xbdfd979e	-0.12382434
155	0x3d94c9ec	0.07265076
156	0xbd43d9eb	-0.047815245
157	0x3d54cad6	0.051951252
158	0xbe2c2ec0	-0.16814709
159	0x3e5956ba	0.2122449
160	0xbe2eb38a	-0.17060676
161	0xbdeb564a	-0.11491068
162	0x3dcbc684	0.09949973
163	0x3e11da10	0.1424334
164	0xbcf52a29	-0.02992733
165	0x3dd2a301	0.10284997
166	0x3e51235c	0.20423645
167	0xbe23da5f	-0.1600127
168	0x3d52f70c	0.051505134
169	0xbc6f0907	-0.014589555
170	0xbd1732ca	-0.03691367
171	0x3ca36e2c	0.019949995
172	0x3e492fe4	0.19647175
173	0xbe46d805	-0.19418342
174	0xbe05e3ae	-0.13075134
175	0xbe2d69d9	-0.16934909
176	0xbdc7cf77	-0.09756368
177	0x3e2ec1ad	0.17066069
178	0xbd8c29f3	-0.06843939
179	0xbe24a8da	-0.16080037
180	0xbd9501bd	-0.07275722
181	0xbe3ddc3f	-0.18541048
182	0x3cc473d4	0.023981012
183	0xbd69320e	-0.0569325
184	0xbe3294d6	-0.17439589
185	0x3afee0f3	0.0019445702
186	0x3e011b6a	0.12608114
187	0x3de3c1f5	0.11120979
188	0x3e51b1d8	0.20477998
189	0xbe1bdde9	-0.15221371
190	0xbd28c655	-0.04120477
191	0xbd327045	-0.0435641
192	0x3e4ad877	0.19809137
193	0x3e50bc1d	0.2038426
194	0xbdad8ed6	-0.084745094
195	0x3c5abdbe	0.013350902
196	0x3e4bed18	0.19914663
197	0x3deb395b	0.11485549
198	0xbe54ef00	-0.20794296
199	0xbe2a9456	-0.16658148
200	0xbe29a09e	-0.16565177
201	0xbd0c5e35	-0.03426953
202	0x3d3dee2f	0.046369728
203	0x3e04bf83	0.12963681
204	0xbe37101e	-0.17877242
205	0xbc89abfc	-0.016805641
206	0xbdfac136	-0.12243883
207	0x3e1926e8	0.14956248
208	0xbe32cfd4	-0.17462093
209	0xbe36165c	-0.17781967
210	0x3c8c4587	0.017122997
211	0xbd4a285a	-0.04935489
212	0xbc8f4186	-0.017487299
213	0x3e45c152	0.19312027
214	0xbe43b9a5	-0.19113787
215	0xbe1b158c	-0.15144938
216	0x3e15bc65	0.14622648
217	0xbd9603e2	-0.07324959
218	0x3e403396	0.18769678
219	0x3cba0a0a	0.022709865
220	0xbe10d347	-0.14143096
221	0xbe4497d9	-0.1919855
222	0x3e23ecf2	0.16008356
223	0x3e0cff9a	0.1376938
224	0xbe5983f5	-0.21241744
225	0x3dd202d8	0.10254449
226	0x3d1e4645	0.038641233
227	0xbe39133e	-0.18073747
228	0x3e0d88a1	0.13821651
229	0x3e56baa3	0.20969634
230	0xbe15f0ca	-0.14642635
231	0xbdf228af	-0.11824166
232	0x3e298f6b	0.16558616
233	0xbe1db864	-0.1540237
234	0xbd6a2475	-0.057163674
235	0xbdee0ae8	-0.11623174
236	0xbe292c3d	-0.16520782
237	0xbc2e8431	-0.010651634
238	0x3db2e585	0.087351836
239	0xbe4538c2	-0.19259933
240	0xbdc9f919	-0.09861965
241	0x3e59b02a	0.21258608
242	0x3d8e0c2a	0.06935914
243	0xbd4c2ab7	-0.049845424
244	0xbd6fec78	-0.058575124
245	0x399b8174	0.00029660354
246	0xbddd94f9	-0.1081943
247	0x3d36bc79	0.044613335
248	0xbd6526d4	-0.055945233
249	0x3db874b9	0.09006638
250	0xbe223b9c	-0.15843052
251	0xbe4c4934	-0.199498
252	0x3a43e09a	0.0007472128
253	0xbe0318d7	-0.12802444
254	0x3e40292a	0.18765703
255	0xbd8a2b47	-0.06746536

net.6.bias f4 [64]
0	0x00000000	0.0
1	0x00000000	0.0
2	0x00000000	0.0
3	0x00000000	0.0
4	0x00000000	0.0
5	0x00000000	0.0
6	0x00000000	0.0
7	0x00000000	0.0
8	0x00000000	0.0
9	0x00000000	0.0
10	0x00000000	0.0
11	0x00000000	0.0
12	0x00000000	0.0
13	0x00000000	0.0
14	0x00000000	0.0
15	0x00000000	0.0
16	0x00000000	0.0
17	0x00000000	0.0
18	0x00000000	0.0
19	0x00000000	0.0
20	0x00000000	0.0
21	0x00000000	0.0
22	0x00000000	0.0
23	0x00000000	0.0
24	0x00000000	0.0
25	0x00000000	0.0
26	0x00000000	0.0
27	0x00000000	0.0
28	0x00000000	0.0
29	0x00000000	0.0
30	0x00000000	0.0
31	0x00000000	0.0
32	0x00000000	0.0
33	0x00000000	0.0
34	0x00000000	0.0
35	0x00000000	0.0
36	0x00000000	0.0
37	0x00000000	0.0
38	0x00000000	0.0
39	0x00000000	0.0
40	0x00000000	0.0
41	0x00000000	0.0
42	0x00000000	0.0
43	0x00000000	0.0
44	0x00000000	0.0
45	0x00000000	0.0
46	0x00000000	0.0
47	0x00000000	0.0
48	0x00000000	0.0
49	0x00000000	0.0
50	0x00000000	0.0
51	0x00000000	0.0
52	0x00000000	0.0
53	0x00000000	0.0
54	0x00000000	0.0
55	0x00000000	0.0
56	0x00000000	0.0
57	0x00000000	0.0
58	0x00000000	0.0
59	0x00000000	0.0
60	0x00000000	0.0
61	0x00000000	0.0
62	0x00000000	0.0
63	0x00000000	0.0

net.8.weight f4 [1, 64]
0	0xbe0ea889	-0.13931479
1	0x3e860cf0	0.26181746
2	0xbe0fbb4a	-0.14036289
3	0xbe842c82	-0.25815207
4	0x3dea49ac	0.11439833
5	0x3b245c1d	0.0025079318
6	0xbdd11d72	-0.102106944
7	0xbe07c0ee	-0.1325719
8	0xbe8d70ba	-0.27625066
9	0xbd0cc727	-0.034369614
10	0x3e8560ee	0.26050514
11	0x3e76f53a	0.24116984
12	0xbd0c8f32	-0.03431625
13	0x3d4f25b2	0.05057306
14	0x3e0758de	0.13217494
15	0x3e427d84	0.18993193
16	0x3e132162	0.14368203
17	0x3e038132	0.12842253
18	0xbe42caf4	-0.19022733
19	0x3e624d5f	0.22099827
20	0x3d92a5b9	0.07160515
21	0x3d4de297	0.05026492
22	0xbd35ef5d	-0.044417728
23	0xbe13bea9	-0.144282
24	0xbe0817f0	-0.13290381
25	0xbe389c1d	-0.18028302
26	0xbe8adb80	-0.2712059
27	0x3e6fcf6e	0.23418972
28	0x3e912668	0.28349614
29	0xbe0b7995	-0.13620599
30	0xbe2ee1f7	-0.17078386
31	0xbd9af42b	-0.075661026
32	0xbe90e51a	-0.2829979
33	0x3dffa8d1	0.12483371
34	0x3deaf13c	0.11471793
35	0xbe7bf60d	-0.2460558
36	0xbd2327dc	-0.039832935
37	0xbe208ba3	-0.15678267
38	0x3e5d3131	0.21600796
39	0x3e317200	0.17328644
40	0x3d974afd	0.0738735
41	0x3e97d27f	0.29652783
42	0xbdc1def8	-0.09466356
43	0xbcbf21b5	-0.023331502
44	0x3e0e3d52	0.1389058
45	0x3e67d509	0.2263986
46	0x3e2735a3	0.16329055
47	0x3cc98c83	0.024603134
48	0xbcc99925	-0.024609158
49	0xbe68490a	-0.22684112
50	0x3d9b2dd8	0.075771034
51	0x3e80ca8b	0.25154528
52	0x3e94ac08	0.290375
53	0xbe1b6502	-0.1517525
54	0xbe96a514	-0.2942282
55	0xbd444eba	-0.047926642
56	0xbe8d0ad2	-0.27547318
57	0xbe282a85	-0.1642247
58	0xbe8de9dd	-0.27717486
59	0xbe93d9af	-0.28877017
60	0xbe5b5d12	-0.21422222
61	0xbd752e09	-0.059858356
62	0xbe3163c8	-0.1732322
63	0xbe4ca437	-0.19984518

mean f4 [6]
0	0x436003c5	224.01472
1	0x4361ba22	225.72708
2	0x00000000	0.0
3	0x00000000	0.0
4	0xc0c533db	-6.16258
5	0x3fec12ad	1.8443199

std f4 [6]
0	0x42279462	41.894905
1	0x422b6efb	42.85838
2	0x3f800000	1.0
3	0x3f800000	1.0
4	0x4316c5c9	150.7726
5	0x4313fa7f	147.9785
