src/ebm_tool_designer/weights/reward_model_best.pt (torch, 174401 bytes, 11 tensors)

net.0.weight f4 [128, 6]
000000 98 4f c7 3e d8 ca 5a bf 5e 53 50 bf f4 37 7e bf
       0.38927913 -0.85465765 -0.8137721 -0.9930413
000010 8e 04 49 bf 60 a1 a5 3e 14 f4 6b 3f b6 1c 45 3f
       -0.78522575 0.32349682 0.9216931 0.76996934
000020 6c c1 f0 3e 0c b4 e7 be da 4c 57 bf 30 16 dd 3d
       0.4702257 -0.45254552 -0.8410164 0.107952476
000030 30 49 ff 3e 40 fd a8 3d 86 ed 06 3f 48 d0 af 3e
       0.49860525 0.082514286 0.5270618 0.34338593
000040 d8 09 85 3e 28 02 2b bf a2 fa 70 3f 6c 0d 44 3f
       0.25984073 -0.66800165 0.94132435 0.7658298
000050 78 45 9e 3e 92 17 5d 3f ac ff be be 50 34 ec 3e
       0.30912375 0.8636409 -0.37304437 0.4613366
000060 2c df b8 be 28 b0 73 3f de 06 27 3f ac c6 c6 be
       -0.36107767 0.9519067 0.65244853 -0.3882345
000070 60 44 ca be 8c 20 35 3f ae 40 66 bf 5c d7 66 3f
       -0.3950529 0.7075279 -0.89942443 0.9017236
000080 5a d5 45 3f 2c b8 84 3e 10 5d fa bd 38 33 03 3f
       0.77278674 0.25921762 -0.122247815 0.5125003
000090 92 7d 4f 3f a8 d4 73 3e f0 a9 1c bf ba 81 2a bf
       0.8105098 0.2381159 -0.61196804 -0.666042
0000a0 d0 a4 06 3f d4 e0 92 3e a2 33 38 3f 00 fe 20 bd
       0.52595234 0.28687155 0.71953785 -0.039304733
0000b0 56 28 1c bf 70 d7 f4 be 8e b6 7f bf c8 e1 94 be
       -0.6099905 -0.47820616 -0.9988793 -0.29078507
0000c0 ae 32 61 bf 30 ce 2a be d6 e3 3a bf 50 d3 35 bf
       -0.87967956 -0.16680217 -0.730039 -0.7102556
0000d0 10 46 ef 3d c0 3e 2e bf 9e fd 17 3f 80 81 a1 3c
       0.11683285 -0.680645 0.59371364 0.01971507
0000e0 8c 09 00 bf 12 07 71 3f e0 b4 52 bf b4 f5 3a 3f
       -0.5001457 0.94151413 -0.82307243 0.73031163
0000f0 74 4a 3e 3f 40 01 b2 3e 28 b2 5b 3f 88 10 94 be
       0.74332356 0.3476658 0.8581872 -0.28918862
000100 08 41 e4 3e 82 9c 43 3f 00 3f a6 bb 64 44 f3 be
       0.44580865 0.76410687 -0.005073428 -0.47513115
000110 70 05 d3 3d a8 19 b3 3e a0 90 20 be 24 3e 2e 3f
       0.103037715 0.34980512 -0.1568017 0.6806357
000120 88 97 2b bf ce 5f 6a 3f be 9a 07 bf e2 e5 05 bf
       -0.67028093 0.91552436 -0.5297049 -0.523039
000130 ea 14 6b bf b4 e7 08 bf 40 eb 7c 3d 98 a9 68 3e
       -0.9182879 -0.5347855 0.06174779 0.22720945
000140 14 ce 9f 3e c0 c5 81 bd 9a b4 6f 3f 88 f0 0a 3e
       0.31211913 -0.06336546 0.9363495 0.13568318
000150 50 87 a7 be 46 99 14 3f f6 2b 64 bf 40 90 2b 3d
       -0.32720423 0.58046377 -0.8912958 0.041885614
000160 00 b7 b1 bc f4 a5 dd 3e ac d1 5d 3f d0 8b c0 3e
       -0.021693707 0.43290675 0.8664806 0.37606668
000170 4c d7 29 bf 78 e3 7c be f0 17 2f 3e 4c fd f1 3e
       -0.6634414 -0.24696147 0.17098975 0.47263563
000180 9a b8 23 bf 7e 4b 1f 3f e0 d5 d6 bd 0a 2d 27 bf
       -0.63953555 0.62224567 -0.10490012 -0.653031
000190 ec cb 1e 3f d0 4f d3 3d 60 b8 30 be 32 a1 50 bf
       0.6202991 0.103179574 -0.17257833 -0.81495965
0001a0 34 b5 b7 be 58 2d 07 3f 7c 6a c6 3e b0 e4 94 3d
       -0.35880435 0.52803564 0.38753116 0.07270181
0001b0 5e ce 01 bf 10 f2 20 bf 56 bd 71 bf b4 81 01 bf
       -0.50705516 -0.6286936 -0.9442953 -0.50588536
0001c0 80 b6 fa bc 2c 5f 98 be 6c e5 0a bf c0 02 1a 3f
       -0.0306046 -0.2976011 -0.5425632 0.60160446
0001d0 96 ff 56 bf 58 df aa be 78 85 47 be 8a bc 16 3f
       -0.83983743 -0.33373523 -0.19484508 0.5888144
0001e0 1c d9 ef be 62 85 24 3f 60 9d 8e 3e c0 a4 43 bf
       -0.4684533 0.64266026 0.27854443 -0.76423264
0001f0 50 9d de 3d 8c f6 0a 3f b0 86 9a bd c0 83 be 3e
       0.10869849 0.5428245 -0.07545221 0.37209892
000200 90 3c 33 3e 3c 37 87 be 58 d0 0b be 82 3f 13 3f
       0.17503572 -0.26409328 -0.13653696 0.5751878
000210 00 59 db 3b bc b2 ec be ec ce c7 be 74 6c 67 3f
       0.0066939592 -0.46230114 -0.39025056 0.9039986
000220 80 6a d2 bd 4c e9 8d 3e 50 54 6a bf ea b4 14 3f
       -0.102742195 0.27717054 -0.915349 0.5808855
000230 ac e3 32 bf 4c 5e ac 3e 34 2a 3f 3f 60 b9 26 3d
       -0.6987865 0.33665693 0.7467377 0.04070413
000240 20 7b e1 bd fc 99 8f be 94 41 70 3f 74 05 42 bf
       -0.11009812 -0.28047168 0.93850064 -0.7578957
000250 38 f8 0a 3f 36 1d 46 3f a0 91 40 be 02 da 20 3f
       0.54285 0.7738832 -0.18805552 0.62832654
000260 08 5d 14 be 56 77 3c bf 58 c0 2e 3e ce 55 0d bf
       -0.14488614 -0.7361959 0.17065561 -0.5520905
000270 4c e1 68 3f dc 02 a0 be 44 a3 be be 74 4f 98 3e
       0.90968776 -0.31252182 -0.37233937 0.29748118
000280 10 ea e4 3d 90 44 62 be e0 a5 1a bd 04 ba f0 be
       0.111774564 -0.22096467 -0.037755847 -0.4701692
000290 80 59 37 bc b4 73 d5 3e 10 79 f8 bd 02 3b 05 3f
       -0.011190772 0.41689837 -0.12132466 0.52043164
0002a0 00 11 2e 3e 30 60 8a 3e f0 96 5b 3f 00 30 44 be
       0.16998672 0.2702651 0.8577719 -0.19158936
0002b0 40 2c f7 3e 00 45 0d bd a0 a9 63 bf 32 89 11 bf
       0.48275948 -0.03448963 -0.889307 -0.5684997
0002c0 10 78 ab be e0 d5 74 bd 72 82 1b bf 2e 18 1f bf
       -0.33490038 -0.05977428 -0.6074592 -0.6214627
0002d0 e0 bc 57 be 84 c6 c1 be 40 c8 f4 3e 60 00 4f 3f
       -0.21068144 -0.37846768 0.4780903 0.8085995
0002e0 34 0b 7b 3f 04 6f 82 3e 60 c3 52 bd a4 f5 05 3f
       0.9806397 0.25475323 -0.051455855 0.5232794
0002f0 a0 1c 7f 3e e2 a8 6a bf 90 29 13 bf 60 14 71 be
       0.24913263 -0.91663945 -0.57485294 -0.23542929
000300 4e 66 14 bf b0 2f ec bd 44 84 4e 3f 58 0c 57 3e
       -0.57968605 -0.11532533 0.8067057 0.21000803
000310 90 6e 64 be 20 0f 11 3f 50 c4 2c 3f c2 61 04 3f
       -0.22307801 0.56663704 0.6748705 0.51711667
000320 00 3f e5 3b 14 2e eb be b0 85 e7 3d 18 a9 a1 be
       0.0069960356 -0.45933592 0.11304796 -0.3157432
000330 1c 70 96 3e 08 96 01 bf 12 18 40 3f 8c a0 5c bf
       0.29382408 -0.50619555 0.7503673 -0.86182475
000340 28 d5 41 3e 8e e0 77 bf 14 82 69 3f b8 6e 10 3e
       0.18928969 -0.9682702 0.9121411 0.14104736
000350 60 33 75 3f d0 0c 25 be 00 b9 ed bb 04 9b 78 bf
       0.9578152 -0.16118169 -0.0072547197 -0.97111535
000360 86 cb 03 bf d8 c4 08 bf b4 13 dd 3e 7e 5f 75 bf
       -0.5148243 -0.5342536 0.43179095 -0.95848835
000370 40 59 88 bc b0 92 c1 be 4c 3c 0f 3f 20 37 e2 be
       -0.01664412 -0.37807226 0.5595138 -0.44182682
000380 14 79 0a bf c8 d4 0f 3f 80 ee 2b 3d 6c 1c 20 3f
       -0.54091 0.56184053 0.0419755 0.6254337
000390 bc 8d 28 3f 70 15 1c bf 70 7a c8 bd 72 55 31 3f
       0.6584127 -0.6097021 -0.09788978 0.69271004
0003a0 1e 29 4f 3f f0 b3 23 3e d0 4f c9 be 78 ad d3 be
       0.80922115 0.1598661 -0.39318705 -0.41343284
0003b0 98 97 0a 3e 86 ae 3f 3f 74 36 e8 3e d8 50 63 be
       0.13534391 0.74875677 0.45354044 -0.22198808
0003c0 12 de 3b 3f d4 b7 38 3f 3e ac 15 3f 62 f3 3d bf
       0.7338573 0.721555 0.58465946 -0.741995
0003d0 6c ee 80 be 18 0a 59 bf 74 d4 7b bf ca b7 64 3f
       -0.251819 -0.84781027 -0.9837105 0.8934294
0003e0 a0 5e a4 3d 40 ea 6b bd d8 69 3d bf 00 21 02 be
       0.08025861 -0.057596445 -0.7398963 -0.12707901
0003f0 28 07 00 3e 78 a4 26 3e 08 c3 03 bf 32 e8 08 bf
       0.1250273 0.16273677 -0.5146947 -0.534793

net.0.bias f4 [128]
000000 00 00 00 00 00 00 00 00 00 00 00 00 00 00 00 00
       0.0 0.0 0.0 0.0
000010 00 00 00 00 00 00 00 00 00 00 00 00 00 00 00 00
       0.0 0.0 0.0 0.0
000020 00 00 00 00 00 00 00 00 00 00 00 00 00 00 00 00
       0.0 0.0 0.0 0.0
000030 00 00 00 00 00 00 00 00 00 00 00 00 00 00 00 00
       0.0 0.0 0.0 0.0
000040 00 00 00 00 00 00 00 00 00 00 00 00 00 00 00 00
       0.0 0.0 0.0 0.0
000050 00 00 00 00 00 00 00 00 00 00 00 00 00 00 00 00
       0.0 0.0 0.0 0.0
000060 00 00 00 00 00 00 00 00 00 00 00 00 00 00 00 00
       0.0 0.0 0.0 0.0
000070 00 00 00 00 00 00 00 00 00 00 00 00 00 00 00 00
       0.0 0.0 0.0 0.0
000080 00 00 00 00 00 00 00 00 00 00 00 00 00 00 00 00
       0.0 0.0 0.0 0.0
000090 00 00 00 00 00 00 00 00 00 00 00 00 00 00 00 00
       0.0 0.0 0.0 0.0
0000a0 00 00 00 00 00 00 00 00 00 00 00 00 00 00 00 00
       0.0 0.0 0.0 0.0
0000b0 00 00 00 00 00 00 00 00 00 00 00 00 00 00 00 00
       0.0 0.0 0.0 0.0
0000c0 00 00 00 00 00 00 00 00 00 00 00 00 00 00 00 00
       0.0 0.0 0.0 0.0
0000d0 00 00 00 00 00 00 00 00 00 00 00 00 00 00 00 00
       0.0 0.0 0.0 0.0
0000e0 00 00 00 00 00 00 00 00 00 00 00 00 00 00 00 00
       0.0 0.0 0.0 0.0
0000f0 00 00 00 00 00 00 00 00 00 00 00 00 00 00 00 00
       0.0 0.0 0.0 0.0
000100 00 00 00 00 00 00 00 00 00 00 00 00 00 00 00 00
       0.0 0.0 0.0 0.0
000110 00 00 00 00 00 00 00 00 00 00 00 00 00 00 00 00
       0.0 0.0 0.0 0.0
000120 00 00 00 00 00 00 00 00 00 00 00 00 00 00 00 00
       0.0 0.0 0.0 0.0
000130 00 00 00 00 00 00 00 00 00 00 00 00 00 00 00 00
       0.0 0.0 0.0 0.0
000140 00 00 00 00 00 00 00 00 00 00 00 00 00 00 00 00
       0.0 0.0 0.0 0.0
000150 00 00 00 00 00 00 00 00 00 00 00 00 00 00 00 00
       0.0 0.0 0.0 0.0
000160 00 00 00 00 00 00 00 00 00 00 00 00 00 00 00 00
       0.0 0.0 0.0 0.0
000170 00 00 00 00 00 00 00 00 00 00 00 00 00 00 00 00
       0.0 0.0 0.0 0.0
000180 00 00 00 00 00 00 00 00 00 00 00 00 00 00 00 00
       0.0 0.0 0.0 0.0
000190 00 00 00 00 00 00 00 00 00 00 00 00 00 00 00 00
       0.0 0.0 0.0 0.0
0001a0 00 00 00 00 00 00 00 00 00 00 00 00 00 00 00 00
       0.0 0.0 0.0 0.0
0001b0 00 00 00 00 00 00 00 00 00 00 00 00 00 00 00 00
       0.0 0.0 0.0 0.0
0001c0 00 00 00 00 00 00 00 00 00 00 00 00 00 00 00 00
       0.0 0.0 0.0 0.0
0001d0 00 00 00 00 00 00 00 00 00 00 00 00 00 00 00 00
       0.0 0.0 0.0 0.0
0001e0 00 00 00 00 00 00 00 00 00 00 00 00 00 00 00 00
       0.0 0.0 0.0 0.0
0001f0 00 00 00 00 00 00 00 00 00 00 00 00 00 00 00 00
       0.0 0.0 0.0 0.0

net.2.weight f4 [128, 128]
000000 2c 81 0c 3c 6e 51 44 3d b2 f1 10 3e 64 ee cb bb
       0.008575719 0.04792922 0.141547 -0.0062234867
000010 82 c0 8d 3d 57 2b e6 bd cc ef c0 3d 29 dd 71 bd
       0.069214836 -0.11238735 0.094207376 -0.059048805
000020 c8 d0 2e be ae d8 42 3c 8e 9a cc bd 7c db 2e 3e
       -0.17071831 0.011892481 -0.099904165 0.17075914
000030 b2 29 0f 3e ad 12 07 be c5 49 08 3e d4 3c 21 3e
       0.13980749 -0.13190718 0.13309391 0.1574586
000040 ca 43 93 3d f7 ab 32 be 5c 71 ed bd 75 ea 22 be
       0.07190664 -0.17448412 -0.11593887 -0.15909751
000050 8a 71 15 3a 10 bc 84 bd 23 6d 97 bc 74 91 14 bc
       0.00057008176 -0.064811826 -0.018484658 -0.009067882
000060 8b 53 89 bc 32 b0 d7 3d cd e3 b2 bc a5 9a 43 3d
       -0.01676347 0.105316535 -0.02183714 0.047754902
000070 0d 3c 18 3e eb d6 37 be a3 e7 df 3d 2c b8 00 be
       0.14866658 -0.17953078 0.10932853 -0.12570256
000080 95 78 32 be 92 89 fd bd 22 bd 84 bd a9 d1 1a be
       -0.17428811 -0.12379755 -0.06481387 -0.15119042
000090 0f 94 4c be 37 3e a0 3d a9 19 1c 3e 08 8c d3 3a
       -0.19978355 0.078243665 0.15244164 0.0016139755
0000a0 4d 2f 5b bd f7 62 1d bb c5 bf c2 3d 3f d9 e8 3d
       -0.053511906 -0.0024015286 0.095092334 0.113695614
0000b0 8b 73 d9 bd 9a 2f 86 bd 84 b5 8c 3c dc db 42 be
       -0.10617741 -0.06552048 0.017176397 -0.19029182
0000c0 33 d0 74 3c 02 b6 56 3e 6c 58 30 be df 19 64 bd
       0.014942217 0.20967868 -0.1722123 -0.055688735
0000d0 74 24 bd bc 0c 7f 39 3e 61 fb ae 3b c8 0c 44 be
       -0.023088671 0.18114871 0.0053400253 -0.191455
0000e0 34 31 e2 3d 6f a2 27 be 53 d8 22 be e7 6d d4 bd
       0.11044541 -0.16370557 -0.15902834 -0.10372525
0000f0 00 41 1a 3e 62 e7 e5 bd c9 77 a1 3d aa 2e aa bd
       0.15063858 -0.112257734 0.07884175 -0.08309682
000100 70 59 c6 3d 49 98 dc bd 31 4e 59 be bf d2 f4 3c
       0.096850276 -0.107712336 -0.21221234 0.029885648
000110 db 5f 3f be dc 95 93 3d 74 67 2e 3e 8b 8a c1 3d
       -0.1868891 0.07206318 0.17031652 0.09450253
000120 0d be 24 3e 6f f7 37 bc 65 63 3f be 24 6b d4 3c
       0.16088124 -0.011228426 -0.1869026 0.025929995
000130 19 ac 56 3e 26 3d 4e be 9b 60 07 bc d6 1e 4b be
       0.20964088 -0.20140514 -0.008262779 -0.19835982
000140 0b 15 4a 3e 49 d6 78 bd 4b f2 4e be 4c 9c 56 3e
       0.1973459 -0.060751233 -0.20209615 0.2095806
000150 fc 12 38 be 99 2a b8 3d 27 8b be bc ca 83 f4 3d
       -0.17975992 0.089925 -0.023259712 0.11939199
000160 c8 0b 49 3d e8 db 79 3d 4e c6 b5 bd ed d9 91 bd
       0.0490835 0.061000735 -0.08875714 -0.07121644
000170 80 90 4c 3d b9 94 c7 bd 44 1a 02 be ad 76 f7 3d
       0.049942493 -0.097451635 -0.12705332 0.120831825
000180 94 5c 83 bc a1 39 54 3e 8f 9b 4e be 57 87 5a 3e
       -0.016035356 0.20725109 -0.20176528 0.2134069
000190 16 8e 02 bd d4 24 bf bd 4a 49 ec bd e5 10 90 bd
       -0.031873785 -0.09333196 -0.11537416 -0.070344724
0001a0 15 08 3e 3e a7 c4 59 bd 6c b4 8d 3d c3 7f d1 3c
       0.1855777 -0.053166058 0.06919178 0.025573617
0001b0 38 e1 39 be 70 01 29 3c 04 5f 3a 3e bb 7d 32 3e
       -0.1815232 0.010315284 0.18200308 0.17430775
0001c0 f5 20 83 3d 41 59 01 3e 3e be 57 3e 48 b5 d9 bd
       0.064027704 0.12631704 0.21068665 -0.1063028
0001d0 bd 8d de 3d ab 63 00 3d 8c 91 0c 3e 47 c2 2a be
       0.10866878 0.03134505 0.13727397 -0.16675673
0001e0 e2 e6 9a bd f3 1e 45 3d e1 02 0e 3c 98 21 aa bd
       -0.07563569 0.04812522 0.008667679 -0.08307189
0001f0 69 8c 27 be 14 4c cb bd e5 91 2e 3e 0b 73 e3 3d
       -0.16362156 -0.0992662 0.17047842 0.11105927
000200 66 35 50 be 42 c3 32 be 2b 83 24 bd 41 8f 18 be
       -0.2033287 -0.17457297 -0.040164154 -0.14898397
000210 11 16 3e 3e f0 e4 c9 3d 48 35 39 be 6f 46 0c 3e
       0.18563105 0.098581195 -0.18086731 0.13698743
000220 f0 cc 0b be eb 37 95 3d bc 9c 4c 3d 17 66 22 bc
       -0.13652396 0.07286056 0.04995416 -0.009912035
000230 60 30 5d 3e 5c 0c 09 3e 8a 3d 96 3c 6f e1 02 3e
       0.21600485 0.13383621 0.018339891 0.12781309
000240 3f ee 1d 3e 4e 01 ea bc 12 eb 47 3e 20 7e 98 3d
       0.15422915 -0.028565075 0.19523266 0.074459314
000250 c6 97 33 3e bb d2 3b be 01 4c 21 be 57 6a 56 bd
       0.17538366 -0.18342106 -0.1575165 -0.052347507
000260 b2 62 0a be c1 df f5 bd 15 d1 9f bd 7a 61 de 3d
       -0.13514212 -0.12005568 -0.07803551 0.10858436
000270 a2 0b 49 be 92 82 d0 bd 48 1f d4 bd 1d 07 c9 bd
       -0.19633344 -0.10181154 -0.10357529 -0.0981581
000280 8e ff 0a 3e b1 3d 3d 3e db bd c6 bd 97 aa 32 be
       0.13574049 0.18480565 -0.09704181 -0.17447887
000290 12 73 c2 bd 96 65 1b 3e f2 a3 1d 3d 72 75 2d 3e
       -0.09494604 0.1517547 0.03848643 0.16939333
0002a0 db 28 32 be 87 f9 1c be e4 2f d2 b9 7b 96 aa bd
       -0.17398398 -0.15329562 -0.00040090003 -0.08329483
0002b0 10 87 94 3d 1f 04 46 3d f1 2e f9 bc 29 c6 19 3e
       0.07252324 0.048343774 -0.030417891 0.15016998
0002c0 52 2a 75 bd c3 01 24 be 34 e2 de 3d f7 e3 0d be
       -0.059854813 -0.16016297 0.108829886 -0.13856493
0002d0 c8 39 d2 bd f6 ce 0f be b3 d4 07 be e9 aa d8 3d
       -0.10264927 -0.14043793 -0.13264732 0.105794735
0002e0 ea 70 1f 3e 40 fa 14 be 70 47 f2 3d b6 71 00 bd
       0.15570417 -0.14548588 0.11830032 -0.031358443
0002f0 4d 23 fb bd 90 7e 82 3d db 14 8a 3d 48 c9 4b 3e
       -0.122625925 0.06371796 0.06742259 0.19901001
000300 3f cf 93 3c 94 31 2d 3d 2c f4 49 3d 52 2a a7 3c
       0.018043159 0.04228361 0.049305126 0.020405922
000310 34 86 07 be c4 74 f1 3d b1 6f 32 be a7 f0 05 be
       -0.13234788 0.117898494 -0.1742542 -0.13080083
000320 bd 5e 4c 3e 1c ec 2a be 05 55 26 be 02 1c 51 be
       0.19958015 -0.16691631 -0.1624337 -0.2042084
000330 88 52 d7 3d 9d 2b ec bc b6 b1 52 3d 84 0a 07 be
       0.105137885 -0.02882939 0.05143901 -0.13187605
000340 ed 88 04 bc da eb 10 bd 0c 4c 04 be a4 fb 52 3e
       -0.008089286 -0.035381176 -0.12919635 0.20603806
000350 23 b0 e3 3d 24 c8 2f bd 74 a4 9c 3d 05 69 42 3e
       0.1111758 -0.04291548 0.076485544 0.18985374
000360 4d 08 c1 3d 3f b9 54 3e f9 25 0f bc 05 d5 43 3e
       0.094254114 0.20773791 -0.008737081 0.19124229
000370 23 0d 01 bc 1d 49 0b 3e 21 64 22 3e e9 d6 ec 3d
       -0.007876667 0.13602109 0.15858509 0.11564428
000380 82 28 68 3d be 4b 1f 3e 24 1b c4 bd f5 b8 12 bd
       0.056679256 0.15556237 -0.09575489 -0.03582092
000390 40 96 41 3e fb fb 07 be 71 47 48 be 1a 48 e2 3d
       0.18904972 -0.13279717 -0.19558503 0.110489085
0003a0 a9 0f 4b bd fc 4f c2 3d f7 0a e5 bd a9 14 73 bd
       -0.04957548 0.09487912 -0.11183732 -0.059345875
0003b0 3d 3f cb bd e6 77 70 3d ce 01 5c 3e 9c 51 8c 3d
       -0.09924171 0.058708094 0.21485063 0.06851503
0003c0 af 67 8f 3a 1b 79 cc bd 26 78 ca bd 54 ad 48 3d
       0.0010940934 -0.099840365 -0.09886198 0.048993424
0003d0 e0 40 5d bc 6f 2c 40 be d3 8a ec 3c dd 97 39 be
       -0.013504237 -0.1876695 0.02887479 -0.18124337
0003e0 26 f1 19 3e 8d 09 98 bd 3c 60 1f 3e f0 04 e1 bd
       0.15033397 -0.07423697 0.15564054 -0.1098727
0003f0 a0 5c 0d 3e f6 d3 57 3e 77 d3 00 3d 39 ed 9b bd
       0.13804865 0.2107695 0.03145167 -0.07613606

net.2.bias f4 [128]
000000 00 00 00 00 00 00 00 00 00 00 00 00 00 00 00 00
       0.0 0.0 0.0 0.0
000010 00 00 00 00 00 00 00 00 00 00 00 00 00 00 00 00
       0.0 0.0 0.0 0.0
000020 00 00 00 00 00 00 00 00 00 00 00 00 00 00 00 00
       0.0 0.0 0.0 0.0
000030 00 00 00 00 00 00 00 00 00 00 00 00 00 00 00 00
       0.0 0.0 0.0 0.0
000040 00 00 00 00 00 00 00 00 00 00 00 00 00 00 00 00
       0.0 0.0 0.0 0.0
000050 00 00 00 00 00 00 00 00 00 00 00 00 00 00 00 00
       0.0 0.0 0.0 0.0
000060 00 00 00 00 00 00 00 00 00 00 00 00 00 00 00 00
       0.0 0.0 0.0 0.0
000070 00 00 00 00 00 00 00 00 00 00 00 00 00 00 00 00
       0.0 0.0 0.0 0.0
000080 00 00 00 00 00 00 00 00 00 00 00 00 00 00 00 00
       0.0 0.0 0.0 0.0
000090 00 00 00 00 00 00 00 00 00 00 00 00 00 00 00 00
       0.0 0.0 0.0 0.0
0000a0 00 00 00 00 00 00 00 00 00 00 00 00 00 00 00 00
       0.0 0.0 0.0 0.0
0000b0 00 00 00 00 00 00 00 00 00 00 00 00 00 00 00 00
       0.0 0.0 0.0 0.0
0000c0 00 00 00 00 00 00 00 00 00 00 00 00 00 00 00 00
       0.0 0.0 0.0 0.0
0000d0 00 00 00 00 00 00 00 00 00 00 00 00 00 00 00 00
       0.0 0.0 0.0 0.0
0000e0 00 00 00 00 00 00 00 00 00 00 00 00 00 00 00 00
       0.0 0.0 0.0 0.0
0000f0 00 00 00 00 00 00 00 00 00 00 00 00 00 00 00 00
       0.0 0.0 0.0 0.0
000100 00 00 00 00 00 00 00 00 00 00 00 00 00 00 00 00
       0.0 0.0 0.0 0.0
000110 00 00 00 00 00 00 00 00 00 00 00 00 00 00 00 00
       0.0 0.0 0.0 0.0
000120 00 00 00 00 00 00 00 00 00 00 00 00 00 00 00 00
       0.0 0.0 0.0 0.0
000130 00 00 00 00 00 00 00 00 00 00 00 00 00 00 00 00
       0.0 0.0 0.0 0.0
000140 00 00 00 00 00 00 00 00 00 00 00 00 00 00 00 00
       0.0 0.0 0.0 0.0
000150 00 00 00 00 00 00 00 00 00 00 00 00 00 00 00 00
       0.0 0.0 0.0 0.0
000160 00 00 00 00 00 00 00 00 00 00 00 00 00 00 00 00
       0.0 0.0 0.0 0.0
000170 00 00 00 00 00 00 00 00 00 00 00 00 00 00 00 00
       0.0 0.0 0.0 0.0
000180 00 00 00 00 00 00 00 00 00 00 00 00 00 00 00 00
       0.0 0.0 0.0 0.0
000190 00 00 00 00 00 00 00 00 00 00 00 00 00 00 00 00
       0.0 0.0 0.0 0.0
0001a0 00 00 00 00 00 00 00 00 00 00 00 00 00 00 00 00
       0.0 0.0 0.0 0.0
0001b0 00 00 00 00 00 00 00 00 00 00 00 00 00 00 00 00
       0.0 0.0 0.0 0.0
0001c0 00 00 00 00 00 00 00 00 00 00 00 00 00 00 00 00
       0.0 0.0 0.0 0.0
0001d0 00 00 00 00 00 00 00 00 00 00 00 00 00 00 00 00
       0.0 0.0 0.0 0.0
0001e0 00 00 00 00 00 00 00 00 00 00 00 00 00 00 00 00
       0.0 0.0 0.0 0.0
0001f0 00 00 00 00 00 00 00 00 00 00 00 00 00 00 00 00
       0.0 0.0 0.0 0.0

net.4.weight f4 [128, 128]
000000 d0 14 e7 3d 82 8a cc 3d a6 e7 21 bc c4 1c 6e 3d
       0.112832665 0.09987356 -0.009881889 0.0581329
000010 56 2c 22 3e 3c dc 5b 3e 29 02 1d 3e 7c a7 8f bd
       0.15837225 0.21470731 0.15332855 -0.07014367
000020 a9 b1 05 3e 7b 40 32 3e 5a ec 41 be af 08 49 3e
       0.13056053 0.1740741 -0.18937817 0.19632219
000030 79 6f ab 3d 1a 0e 52 be dd 2c 5c be 7b e9 43 be
       0.08370871 -0.20513192 -0.21501489 -0.19132034
000040 7e d1 c4 3d c5 3c 58 3e 08 ac 14 be ef 8f 25 be
       0.0961027 0.21116932 -0.1451875 -0.16168188
000050 bc 9d 3b 3e d5 0a 41 3e 3d a7 14 3e a7 a5 cc bd
       0.1832189 0.18851788 0.14516921 -0.09992533
000060 52 48 bc bc 77 26 f0 3d 88 26 a2 3d c9 7c 0b 3e
       -0.022983704 0.117260866 0.079175055 0.1362182
000070 5e ae 09 3e 0e ef 8a 3d 45 b3 44 be 66 a1 be bd
       0.13445422 0.06783877 -0.19209011 -0.09308128
000080 4f fd 05 3e 5a 39 47 3e 2a 26 9f 3a d8 b7 50 bd
       0.13084911 0.19455472 0.0012142111 -0.050956577
000090 86 05 01 be 2a 75 bc 3d a2 56 20 3e 19 c6 c1 bd
       -0.12599763 0.09202035 0.15658048 -0.09461612
0000a0 a2 07 02 3c 08 90 3c be 91 5b 1b 3e d9 2c ac bc
       0.00793639 -0.18414319 0.15171649 -0.021017479
0000b0 af 58 35 3e 47 fb 10 3d 7b 8a bf bd 58 2f 48 3e
       0.17709611 0.035395887 -0.09352585 0.1954931
0000c0 b6 06 00 be 17 63 35 bd bb 14 df bd c2 21 3f 3d
       -0.1250256 -0.044283953 -0.10892626 0.046663053
0000d0 1e 86 0d be f7 ca 12 be ae 73 0f 3e e1 ad cf bd
       -0.13820693 -0.14335237 0.14008972 -0.10140587
0000e0 fc 50 3b be 03 7b 63 bd 22 35 60 3b 91 f1 33 bd
       -0.18292612 -0.055537235 0.0034211357 -0.043931548
0000f0 e0 e6 54 bb db 7b 49 be 7d bf 44 3e ea 1e 56 bd
       -0.0032486245 -0.19676153 0.19213672 -0.052275576
000100 a7 ca 40 3d bc c2 ae 3d 2b 09 21 be 42 26 f7 3d
       0.047068264 0.085332364 -0.15726154 0.12067844
000110 b9 23 c7 3c 65 19 e8 bd 17 55 ef 3d 50 bb 39 bd
       0.024309026 -0.113329686 0.116861515 -0.04534465
000120 33 34 9d bb a0 56 0c 3e b8 f1 2e be fb 39 18 bd
       -0.0047974824 0.1370492 -0.17084396 -0.03716467
000130 aa d7 4b 3e a9 23 82 3d 21 21 36 bd 2d b1 5c 3e
       0.19906488 0.06354458 -0.044465188 0.21551962
000140 80 25 48 bd 10 72 4c 3e 91 a5 ac 3d c6 1c 53 be
       -0.048863888 0.19965386 0.08430017 -0.20616445
000150 1b 1d bd bd 46 05 06 3d a9 65 02 be 8f 1f 50 3e
       -0.09234067 0.032719873 -0.12734093 0.20324539
000160 cf c2 2f 3e ab 2d 66 3d bc ca f4 bc 39 04 ca 3c
       0.17164157 0.056195896 -0.029881828 0.024660217
000170 9e 85 34 3e 84 fd 5a 3e fd 04 2f 3e 3c b0 b0 bd
       0.17629096 0.21385771 0.17091747 -0.08627364
000180 42 98 b0 3b b4 b6 0d be 93 78 5c be cf b0 29 bc
       0.0053892443 -0.13839227 -0.2153037 -0.010357096
000190 1d 96 bc bd 55 73 3c be 53 2a dc bd 8d aa 9b 3d
       -0.09208319 -0.1840337 -0.1075026 0.07600889
0001a0 0c 8e 58 be ef 47 61 bd db 99 33 3e 66 20 18 3e
       -0.21147937 -0.05500024 0.1753916 0.14856109
0001b0 0a c0 93 bc bf 39 2c be 09 fb 13 be c0 62 b7 bc
       -0.018035907 -0.16818903 -0.14451231 -0.022385955
0001c0 d6 30 37 be 86 aa fb bd 56 6b 29 be e2 72 12 be
       -0.17889723 -0.12288384 -0.16544852 -0.14301637
0001d0 98 3c 1b 3e 95 ee b9 3d d6 1e 01 be 5b 2b 6e bd
       0.15159833 0.09078709 -0.12609419 -0.058146816
0001e0 4c 53 03 be 9d 9c 89 3b 87 b0 9f 3d 5f 60 15 be
       -0.12824744 0.004199578 0.07797342 -0.14587544
0001f0 5c d2 86 3b bd 04 15 be 81 78 62 bd 2d e8 c2 bd
       0.0041144323 -0.14552589 -0.055290703 -0.0951694
000200 a6 a9 02 3e 10 ba f1 bc e1 c7 f4 bd 1d 2a 01 be
       0.12760028 -0.029507667 -0.119521864 -0.12613721
000210 cd a2 c8 3d cb 17 46 be 16 d5 a4 3c bf 9b 6b bd
       0.09796677 -0.19345014 0.020121139 -0.057521578
000220 e6 54 9e bd a0 7f ce bd 80 a7 00 be a3 bd 74 bd
       -0.07731037 -0.10082936 -0.12563896 -0.059751164
000230 6b 3a 37 be ac 5e 12 be e8 bd 05 bd 8a 7b 4c 3e
       -0.17893378 -0.14293927 -0.03265181 0.19969001
000240 e9 9f 15 be c3 7a 6a 3d 5a 61 d5 bd 81 f3 21 3e
       -0.14611782 0.05724598 -0.10418959 0.15815546
000250 64 da be bc a8 ec da bd af 75 c5 bb 2d 2b 81 3c
       -0.023297496 -0.1068967 -0.006025992 0.015767658
000260 5a fc 79 3c ea 73 5b 3e b5 6a 13 3d 11 9f bb 3b
       0.015257919 0.21430936 0.035990436 0.0057257493
000270 2e 7f 7d 3c 08 23 4c be 9d d6 55 be 5c 5a d6 bd
       0.0154722165 -0.19935238 -0.2088265 -0.104664534
000280 fd cf 80 bd 67 30 a3 bd 91 fc 11 3e 86 63 53 be
       -0.062896706 -0.079682164 0.14256503 -0.20643434
000290 a7 34 04 be c9 a7 16 be 46 3f c7 bc e6 85 26 be
       -0.1291071 -0.14712442 -0.024322163 -0.16262016
0002a0 1e 9f 39 be 1f 4b 1d bd f0 51 55 be d7 04 86 3c
       -0.18127105 -0.03840172 -0.20832038 0.01635973
0002b0 ce 10 20 3e 09 58 c7 bd a4 d7 a3 bd d3 82 16 bd
       0.1563141 -0.09733588 -0.080001146 -0.036745857
0002c0 73 bf 31 3e 91 46 a8 bd 21 16 0d be e4 a4 ff 3c
       0.17358188 -0.082165845 -0.13777973 0.031206556
0002d0 c0 14 27 be cf 1d 31 3e 0b 1e bb bd 57 11 80 3d
       -0.16316509 0.17296527 -0.091365896 0.06253307
0002e0 72 77 07 3e 0e 65 4a 3e 11 31 40 3b af bd 81 3d
       0.13229159 0.19765112 0.002932612 0.063350074
0002f0 65 f9 38 3e d8 da 14 3e c5 de cf bd f0 40 35 3e
       0.18063886 0.14536607 -0.10149912 0.17700553
000300 ca bb 42 be 0a 4e 22 be e5 3e 4b be d3 f7 fa bc
       -0.19016948 -0.15850082 -0.19848211 -0.03063575
000310 44 e1 ea bd a9 9a 34 3e ce 22 ec 3d 78 c5 2f be
       -0.11468747 0.17637123 0.11530076 -0.17165172
000320 21 a7 f6 3d b3 11 19 bd 37 74 29 be fb 0e e4 bd
       0.12043596 -0.037370395 -0.16548239 -0.1113567
000330 a2 0e b4 3d e5 8d 36 3d 8e 66 a8 3d 9a fd ea bd
       0.087918535 0.044568915 0.08222686 -0.11474152
000340 2c 37 25 3e 94 0e 12 be 2f 67 ff bb 22 f2 a5 bd
       0.16134328 -0.14263374 -0.007794283 -0.08102824
000350 9d 19 ee 3d e8 4b 0b 3e 1d ba ba bc 0b 70 2f 3e
       0.11625979 0.13603175 -0.022793824 0.17132585
000360 27 08 5c 3e 94 a7 33 bc 57 14 b8 bb 5e e5 f7 3c
       0.21487485 -0.010965247 -0.005617659 0.030260738
000370 59 a7 08 3e 7d cc 55 3e be c4 41 3d 23 62 4b be
       0.13345088 0.20878787 0.04730677 -0.19861655
000380 de 62 58 3e 7f d1 64 bd 14 1b bb 3d cb 34 34 3d
       0.21131465 -0.055863854 0.09136024 0.04399566
000390 c5 bc 43 3e 5d 44 99 bc 4f 49 03 3e 9f d5 44 3e
       0.19114979 -0.018709356 0.12820934 0.19222115
0003a0 d9 14 03 be d8 73 ab bc 6d 31 14 3e 3d 6e 36 3e
       -0.12800921 -0.020929262 0.1447198 0.1781549
0003b0 a9 62 18 3e 72 fc 30 3d c8 af 39 3e d3 fa 3c 3e
       0.14881386 0.0432095 0.18133461 0.18455057
0003c0 04 b8 b0 bd 81 bd 4a 3e 62 b1 de 3d 4b 9f e4 3b
       -0.08628848 0.19798853 0.10873677 0.006976997
0003d0 b3 fe 08 3e 0a d1 20 3e 1f 71 f8 bb a6 09 0d be
       0.1337841 0.15704742 -0.0075818445 -0.13773212
0003e0 d2 a4 1f be 09 fc e8 3d 3c 75 3a bd da b3 82 3d
       -0.15590218 0.11376197 -0.04552196 0.0638196
0003f0 a1 37 ab bd 53 1e 11 3d 88 7e 1b bc fa 72 ca bd
       -0.0836022 0.03542931 -0.009490617 -0.09885211

net.4.bias f4 [128]
000000 00 00 00 00 00 00 00 00 00 00 00 00 00 00 00 00
       0.0 0.0 0.0 0.0
000010 00 00 00 00 00 00 00 00 00 00 00 00 00 00 00 00
       0.0 0.0 0.0 0.0
000020 00 00 00 00 00 00 00 00 00 00 00 00 00 00 00 00
       0.0 0.0 0.0 0.0
000030 00 00 00 00 00 00 00 00 00 00 00 00 00 00 00 00
       0.0 0.0 0.0 0.0
000040 00 00 00 00 00 00 00 00 00 00 00 00 00 00 00 00
       0.0 0.0 0.0 0.0
000050 00 00 00 00 00 00 00 00 00 00 00 00 00 00 00 00
       0.0 0.0 0.0 0.0
000060 00 00 00 00 00 00 00 00 00 00 00 00 00 00 00 00
       0.0 0.0 0.0 0.0
000070 00 00 00 00 00 00 00 00 00 00 00 00 00 00 00 00
       0.0 0.0 0.0 0.0
000080 00 00 00 00 00 00 00 00 00 00 00 00 00 00 00 00
       0.0 0.0 0.0 0.0
000090 00 00 00 00 00 00 00 00 00 00 00 00 00 00 00 00
       0.0 0.0 0.0 0.0
0000a0 00 00 00 00 00 00 00 00 00 00 00 00 00 00 00 00
       0.0 0.0 0.0 0.0
0000b0 00 00 00 00 00 00 00 00 00 00 00 00 00 00 00 00
       0.0 0.0 0.0 0.0
0000c0 00 00 00 00 00 00 00 00 00 00 00 00 00 00 00 00
       0.0 0.0 0.0 0.0
0000d0 00 00 00 00 00 00 00 00 00 00 00 00 00 00 00 00
       0.0 0.0 0.0 0.0
0000e0 00 00 00 00 00 00 00 00 00 00 00 00 00 00 00 00
       0.0 0.0 0.0 0.0
0000f0 00 00 00 00 00 00 00 00 00 00 00 00 00 00 00 00
       0.0 0.0 0.0 0.0
000100 00 00 00 00 00 00 00 00 00 00 00 00 00 00 00 00
       0.0 0.0 0.0 0.0
000110 00 00 00 00 00 00 00 00 00 00 00 00 00 00 00 00
       0.0 0.0 0.0 0.0
000120 00 00 00 00 00 00 00 00 00 00 00 00 00 00 00 00
       0.0 0.0 0.0 0.0
000130 00 00 00 00 00 00 00 00 00 00 00 00 00 00 00 00
       0.0 0.0 0.0 0.0
000140 00 00 00 00 00 00 00 00 00 00 00 00 00 00 00 00
       0.0 0.0 0.0 0.0
000150 00 00 00 00 00 00 00 00 00 00 00 00 00 00 00 00
       0.0 0.0 0.0 0.0
000160 00 00 00 00 00 00 00 00 00 00 00 00 00 00 00 00
       0.0 0.0 0.0 0.0
000170 00 00 00 00 00 00 00 00 00 00 00 00 00 00 00 00
       0.0 0.0 0.0 0.0
000180 00 00 00 00 00 00 00 00 00 00 00 00 00 00 00 00
       0.0 0.0 0.0 0.0
000190 00 00 00 00 00 00 00 00 00 00 00 00 00 00 00 00
       0.0 0.0 0.0 0.0
0001a0 00 00 00 00 00 00 00 00 00 00 00 00 00 00 00 00
       0.0 0.0 0.0 0.0
0001b0 00 00 00 00 00 00 00 00 00 00 00 00 00 00 00 00
       0.0 0.0 0.0 0.0
0001c0 00 00 00 00 00 00 00 00 00 00 00 00 00 00 00 00
       0.0 0.0 0.0 0.0
0001d0 00 00 00 00 00 00 00 00 00 00 00 00 00 00 00 00
       0.0 0.0 0.0 0.0
0001e0 00 00 00 00 00 00 00 00 00 00 00 00 00 00 00 00
       0.0 0.0 0.0 0.0
0001f0 00 00 00 00 00 00 00 00 00 00 00 00 00 00 00 00
       0.0 0.0 0.0 0.0

net.6.weight f4 [64, 128]
000000 eb 66 c9 3d a3 ab cd 3d eb 4d 8f bd b9 48 2c 3e
       0.09834083 0.10042503 -0.069972835 0.16824616
000010 70 6b f5 bc 72 c5 dd bd ab 65 e5 3d 87 04 e0 bc
       -0.029958457 -0.10828675 0.11201032 -0.027345909
000020 e0 a9 ee bb 38 be 54 be 88 b9 1e be bd ee 9e bc
       -0.0072834343 -0.20775688 -0.15500462 -0.019400949
000030 8d 9c 9c 3d c6 c0 4a bd 4f 75 5f 3c 42 50 62 bd
       0.07647047 -0.04950025 0.013638808 -0.05525232
000040 b3 aa ad bd a1 6c aa 3d 00 f7 95 3d 57 fe ca bc
       -0.08479824 0.083215006 0.07322502 -0.024779482
000050 b1 8f 27 be d7 dc a9 3d ec fe b0 bd 13 c1 1c bd
       -0.16363408 0.08294075 -0.086423725 -0.038270067
000060 40 db 12 3e 0a 78 0d be 59 27 43 3e 63 99 38 3e
       0.1434145 -0.13815323 0.19057979 0.18027262
000070 d7 73 07 be cf c4 48 3e ce 3c 2f 3e fd e0 b5 bd
       -0.13227783 0.19606327 0.17113039 -0.08880804
000080 b3 4f 5c 3e 65 0b 40 be 5b 12 08 bc 2f d0 4a be
       0.21514778 -0.18754347 -0.008305158 -0.19805978
000090 92 28 8c bd e8 54 2f bc 44 74 48 be 77 c5 dc 3d
       -0.06843676 -0.010701396 -0.19575602 0.10779851
0000a0 d9 ec 0f be a8 7b 05 3e a8 5e 99 3d 39 df cb 3d
       -0.14055194 0.13035452 0.07488757 0.09954686
0000b0 a9 2e 3b be 70 1b 02 be f2 53 b7 3d 71 5e 7c 3d
       -0.18279518 -0.12705779 0.08951558 0.061613504
0000c0 e2 3a 27 bd 5d 88 4c 3e 10 09 56 be 33 af 09 be
       -0.04082764 0.19973893 -0.20901895 -0.1344574
0000d0 79 ea 6b bd 26 06 e0 3d 54 20 e7 3d b6 a5 25 be
       -0.057596657 0.10938673 0.11285463 -0.16176495
0000e0 b8 6a 25 3d 35 ce 76 bd a5 6f b2 3c bf 6d 55 3e
       0.040384978 -0.060255248 0.021781752 0.20842646
0000f0 de c2 89 3d ec 75 4e 3e 0d 9c 2d be 48 e8 42 3e
       0.06726621 0.20162171 -0.1695406 0.19033921
000100 77 ea 55 3e 6f 59 2e 3d 17 e8 26 3e f5 61 62 bd
       0.20890222 0.04256576 0.16299473 -0.0552692
000110 ab 8a d6 bd 87 fb 0b be d5 1a 4f 3c cc db c3 bd
       -0.104756676 -0.13670169 0.012640675 -0.09563407
000120 70 6d 11 be 2e 5b c3 bc 24 55 6e 3d 07 76 50 3e
       -0.14201903 -0.023847189 0.058186665 0.20357524
000130 c0 52 36 3e b7 ce 15 be b3 42 45 3e 6d d5 09 be
       0.17805004 -0.14629637 0.19263725 -0.13460322
000140 58 95 ed bd e9 90 ee bd 5f d5 85 3d 83 2f f4 bd
       -0.11600751 -0.11648733 0.06534838 -0.11923125
000150 32 91 52 3e e8 34 54 bd 1f 13 2b bc 3e 4e 03 be
       0.205632 -0.051808268 -0.010441571 -0.12822816
000160 5a 64 82 3c 2c 28 01 3e 50 7a 1a be b6 54 50 bd
       0.015916992 0.1261298 -0.15085721 -0.050862037
000170 c2 cb 2d 3e a7 59 3e 3d 8a 4a 63 3d a9 ca 28 3e
       0.16972259 0.046472218 0.055491008 0.16483559
000180 8a 56 0a be 91 38 e7 3d 0e 77 b3 bd be dc 0c be
       -0.13509575 0.11290086 -0.08762942 -0.13756081
000190 45 da 17 be db 3f 28 be cd 04 32 bd 20 1a fd 3d
       -0.14829357 -0.16430609 -0.04346161 0.123584986
0001a0 71 04 25 3e 0b 11 f2 3d c2 78 02 3c 3e f6 b4 bc
       0.16114976 0.11819657 0.007963361 -0.022090074
0001b0 18 b4 5f 3b ca 8c 58 be 9f a7 c6 bd 3b fa 33 be
       0.0034134444 -0.21147457 -0.0969994 -0.17575924
0001c0 ef 16 93 3d a1 2a 3a 3e 20 60 61 bd 25 ed 79 bd
       0.071821086 0.18180324 -0.055023313 -0.061017174
0001d0 3b 34 ee bd 6c 5a 92 3d 4e 07 bd bd c5 e7 30 be
       -0.11631056 0.07146153 -0.09229909 -0.17275913
0001e0 14 bf 0d be 08 29 5d bd 34 9c 34 3e c3 c9 60 3c
       -0.13842422 -0.05399421 0.17637712 0.013719979
0001f0 4d ae 84 bd d7 07 2c be b0 d9 48 3e 27 ec 24 3e
       -0.06478558 -0.16799866 0.19614291 0.1610571
000200 c4 b0 ae 3d e8 3a 62 bc 63 6f 48 be 8e 4b c4 3d
       0.08529809 -0.01380799 -0.1957374 0.095847234
000210 0c 3a 59 be 45 c5 97 3d 48 62 d2 bd 32 a6 16 bd
       -0.2121355 0.07410673 -0.10272652 -0.03677959
000220 22 55 20 3e 90 95 c2 bc fc 97 e1 3b a1 7d 0c 3d
       0.15657476 -0.023752958 0.006884573 0.034299497
000230 1d 10 12 be 01 38 81 bc 51 73 1f be 15 4a cc 3d
       -0.14263959 -0.015773775 -0.15571333 0.099750675
000240 64 10 55 3e 63 02 d3 bc 2d 94 e5 bd a3 a0 3f 3e
       0.20807034 -0.025757974 -0.11209903 0.18713622
000250 ba 49 2c 3d e0 c4 8a bd b3 c5 2f be e8 52 53 3e
       0.0420625 -0.06775832 -0.1716526 0.20637095
000260 14 92 2e be e9 5d 49 3e e2 29 06 3e bc b1 5d 3e
       -0.17047912 0.1966473 0.13101915 0.21649832
000270 27 98 d0 bc 0b 65 52 bc 39 b7 51 be 0a 73 3e be
       -0.025463177 -0.012841473 -0.2048005 -0.18598571
000280 00 22 06 be 9c fb 26 be c1 ef e9 3d 83 60 b9 bd
       -0.13098907 -0.16306919 0.114226826 -0.09051611
000290 40 d4 80 bc fe fe cd bd 02 97 f0 bd 11 57 8a bd
       -0.015726209 -0.100584015 -0.117475525 -0.06754888
0002a0 99 e8 99 3d fd 12 0a 3e b3 cd cb 3d 08 01 fc 3d
       0.075150676 0.13483806 0.099513434 0.12304884
0002b0 6b 4b e5 3b 28 7d 3b be 38 29 c8 3d 97 3f c3 bd
       0.006997516 -0.18309462 0.09773487 -0.09533613
0002c0 0c c5 dc 3d 93 30 55 be 46 4c db 3d ec bd 9a 3d
       0.10779771 -0.20819311 0.107079074 0.07555756
0002d0 30 39 01 3e cd 4d 40 be f7 23 11 be 3b a8 8d bd
       0.12619472 -0.18779679 -0.14173876 -0.06916853
0002e0 05 6d 9d bd 8f fa 5b 3e cf 11 a1 3d b2 44 7a 3d
       -0.076868095 0.214823 0.07864725 0.06110067
0002f0 d3 e2 00 be 36 dc 28 be 99 0e 3b be f9 fb 07 be
       -0.12586527 -0.16490254 -0.18267287 -0.13279714
000300 cc 25 17 bc 77 f4 0f 3e 43 0b ea bd d1 e2 22 3e
       -0.00922532 0.140581 -0.11427929 0.15906836
000310 51 ad 82 bc 91 5a 15 be 7d 27 36 3d 98 6d 2b 3d
       -0.015951784 -0.1458533 0.044471253 0.041852564
000320 49 87 07 3e f3 a8 2a 3d 23 ba 37 3d d4 90 f1 bd
       0.13235201 0.04166503 0.04485525 -0.11795202
000330 3f c0 8a 3d 39 ad d8 bd 60 62 f1 3c d3 72 14 3e
       0.06774949 -0.105799146 0.029465854 0.14496927
000340 ca 5e a8 3c 74 e3 9b bd 51 09 33 3e 18 2d b1 bd
       0.020553011 -0.076117426 0.17484023 -0.08651179
000350 0b 5c 21 3e a8 29 4e be a0 7e 83 3c db 42 0b bd
       0.15757768 -0.20133078 0.01605159 -0.033999305
000360 62 55 05 3e 3c ac 9c 3c 63 a6 9c 3c 89 9e d9 3d
       0.13020852 0.019125096 0.019122308 0.10625941
000370 d6 68 85 3d d0 e3 db bd 31 dc 1f bd 99 e5 10 bb
       0.065141365 -0.10736811 -0.03902835 -0.0022109507
000380 94 eb 00 bd ce 5e 21 3e f9 18 1d 3e a5 47 3c bd
       -0.031474665 0.15758821 0.15341558 -0.045966763
000390 b0 aa d4 bb de 44 f7 bd b1 4a e1 bc 02 4b e7 3d
       -0.006490074 -0.12073682 -0.027501436 0.112936035
0003a0 9b 7c 5c be b3 0e 0a be 9e d2 70 ba fe 36 1f be
       -0.21531908 -0.1348217 -0.0009186658 -0.15548322
0003b0 4a ad 29 3e cd 0d ab bd 86 92 b6 ba b5 e5 38 be
       0.16570011 -0.08352242 -0.0013929165 -0.18056376
0003c0 17 3b 8b 3d a4 62 36 3e 57 a7 af 3c fb 5a 9d bd
       0.0679838 0.17811066 0.021442099 -0.07683369
0003d0 6a 59 17 be 72 e1 db 3d bd e9 88 3d a3 66 41 3e
       -0.14780203 0.1073636 0.06685207 0.18886809
0003e0 f4 f7 22 3e 7f 96 0e be c4 9f 46 be c2 1d ae 3d
       0.15914899 -0.13924597 -0.19396883 0.085017696
0003f0 00 ab ae 3d 0c 80 59 3d 11 ee ae bc 38 f8 3c 3e
       0.085287094 0.05310063 -0.021353753 0.18454063

net.6.bias f4 [64]
000000 00 00 00 00 00 00 00 00 00 00 00 00 00 00 00 00
       0.0 0.0 0.0 0.0
000010 00 00 00 00 00 00 00 00 00 00 00 00 00 00 00 00
       0.0 0.0 0.0 0.0
000020 00 00 00 00 00 00 00 00 00 00 00 00 00 00 00 00
       0.0 0.0 0.0 0.0
000030 00 00 00 00 00 00 00 00 00 00 00 00 00 00 00 00
       0.0 0.0 0.0 0.0
000040 00 00 00 00 00 00 00 00 00 00 00 00 00 00 00 00
       0.0 0.0 0.0 0.0
000050 00 00 00 00 00 00 00 00 00 00 00 00 00 00 00 00
       0.0 0.0 0.0 0.0
000060 00 00 00 00 00 00 00 00 00 00 00 00 00 00 00 00
       0.0 0.0 0.0 0.0
000070 00 00 00 00 00 00 00 00 00 00 00 00 00 00 00 00
       0.0 0.0 0.0 0.0
000080 00 00 00 00 00 00 00 00 00 00 00 00 00 00 00 00
       0.0 0.0 0.0 0.0
000090 00 00 00 00 00 00 00 00 00 00 00 00 00 00 00 00
       0.0 0.0 0.0 0.0
0000a0 00 00 00 00 00 00 00 00 00 00 00 00 00 00 00 00
       0.0 0.0 0.0 0.0
0000b0 00 00 00 00 00 00 00 00 00 00 00 00 00 00 00 00
       0.0 0.0 0.0 0.0
0000c0 00 00 00 00 00 00 00 00 00 00 00 00 00 00 00 00
       0.0 0.0 0.0 0.0
0000d0 00 00 00 00 00 00 00 00 00 00 00 00 00 00 00 00
       0.0 0.0 0.0 0.0
0000e0 00 00 00 00 00 00 00 00 00 00 00 00 00 00 00 00
       0.0 0.0 0.0 0.0
0000f0 00 00 00 00 00 00 00 00 00 00 00 00 00 00 00 00
       0.0 0.0 0.0 0.0

net.8.weight f4 [1, 64]
000000 bf 31 5d be 1b 5c 2f be 52 d0 ab bd 54 b1 92 3e
       -0.21601008 -0.17124979 -0.08389343 0.28650916
000010 d4 1c ef bd b4 a6 e9 3d 0b 08 35 be 46 74 76 bd
       -0.116754204 0.11408749 -0.1767885 -0.06016948
000020 6e 39 16 3e d0 9b 2f 3e db 2a 0f 3e e9 fa 5e 3d
       0.14670345 0.17149282 0.13981192 0.054438505
000030 e8 a7 b1 3c 2e 6d 8c 3e b5 28 31 3e aa c9 93 be
       0.02168651 0.27427047 0.17300685 -0.28864795
000040 15 59 47 be c9 2b 92 bd 9b df 1b 3e 84 9e 8f be
       -0.19467576 -0.071372576 0.15222017 -0.28050625
000050 ff 38 08 be 1c 6a 56 be 62 10 fc 3d fb 69 9b 3e
       -0.13302992 -0.20938915 0.12307812 0.30354294
000060 6b 8e 83 3d 0e d7 0b be 2a 85 81 be d3 49 21 3c
       0.064236484 -0.13656256 -0.2529691 0.009844261
000070 57 a3 8d bc bb 5e 35 3e 67 8b cb 3d c5 bd 85 3e
       -0.0172898 0.17711918 0.09938698 0.26121345
000080 c3 bb 31 3e a0 78 a6 3d d8 65 0c be 8f 11 15 3d
       0.17356782 0.08128476 -0.13710725 0.0363937
000090 25 e9 df 3d df 95 48 3e 4e 90 63 3e e0 a9 5a be
       0.10933141 0.19588421 0.22223017 -0.21353865
0000a0 b1 65 27 3e 00 4e c4 bd b5 70 7d 3c 8d 23 7c be
       0.16347386 -0.0958519 0.015468766 -0.24622937
0000b0 1b 1a 9e bd 47 da 0b 3d a7 1f 2d 3e d7 cc df bd
       -0.07719823 0.034143712 0.16906606 -0.10927742
0000c0 81 39 8d be 84 dd 2a be bd 59 b7 3b d4 27 9e bd
       -0.27582934 -0.16686064 0.0055954144 -0.0772244
0000d0 f2 96 97 be 8b 6e 30 be c0 8b 8e 3e 79 e0 16 3c
       -0.2960735 -0.17229669 0.27840996 0.009208792
0000e0 5d a9 85 be 7e cc 92 3e 15 af 15 be 79 54 9c bd
       -0.26105776 0.2867164 -0.1461757 -0.076332994
0000f0 4a fc 16 be 2c 7f bf 3b ae ad 53 bd 98 69 a3 bd
       -0.14744678 0.0058440175 -0.051679306 -0.07979125

mean f4 [6]
000000 9a 07 62 43 e3 fd 60 43 00 00 00 00 00 00 00 00
       226.0297 224.99174 0.0 0.0
000010 c7 f4 bd c0 36 72 04 c1
       -5.93613 -8.277884

std f4 [6]
000000 c7 f6 2b 42 b0 8a 2c 42 00 00 80 3f 00 00 80 3f
       42.990993 43.135437 1.0 1.0
000010 7f 7e 18 43 d8 f6 18 43
       152.49413 152.96423
