src/ebm_tool_designer/weights/reward_model_best.pt (torch, 174401 bytes, 11 tensors)

net.0.weight f4 [128, 6]
0	0xbd5c63c0	-0.053806067
1	0x3f6f612e	0.9350766
2	0xbe6a7500	-0.22896194
3	0x3db22950	0.08699286
4	0x3eb171f0	0.3465724
5	0xbf5705d8	-0.8399329
6	0x3f105cba	0.5639149
7	0x3f75590e	0.9583901
8	0x3c0c4680	0.00856173
9	0x3eeeef00	0.46666718
10	0x3f70edd2	0.94112885
11	0xbf69b7ac	-0.91295886
12	0xbef4ceb4	-0.47813952
13	0xbee97d94	-0.4560362
14	0xbeb0ff68	-0.3456986
15	0xbf04dffe	-0.51904285
16	0xbd4b0040	-0.049560785
17	0xbe7de028	-0.2479254
18	0xbef24140	-0.47315407
19	0x3f0b94ec	0.5452411
20	0xbee81c90	-0.4533429
21	0xbe33a518	-0.17543447
22	0xbf33d94a	-0.7025343
23	0x3f1ca9ce	0.611966
24	0x3d9b49f0	0.07582462
25	0x3f5f919e	0.8733157
26	0xbf7ebdec	-0.9950855
27	0x3f7c2c64	0.98505235
28	0x3f717c14	0.94329953
29	0x3f31ad32	0.694049
30	0x3f1dff9c	0.61718154
31	0xbef30c7c	-0.47470462
32	0xbf0510d8	-0.51978827
33	0x3f62ff60	0.8867092
34	0x3f1554ae	0.58332336
35	0xbf6cb516	-0.92463815
36	0xbf505b0a	-0.81388915
37	0xbf2d9af2	-0.6781455
38	0xbedcaccc	-0.43100584
39	0x3d80af80	0.06283474
40	0x3d4cebe0	0.050029635
41	0x3f664a82	0.8995744
42	0x3eb373d0	0.35049295
43	0x3ea13f58	0.3149364
44	0xbec2426c	-0.379413
45	0x3f24e128	0.6440606
46	0xbf400c56	-0.75018823
47	0xbf264f48	-0.64964724
48	0x3f123bd2	0.5712253
49	0xbcf69f40	-0.030105233
50	0x3d5a6200	0.053316116
51	0x3f69d54e	0.913411
52	0xbe73c040	-0.23803806
53	0xbf40186c	-0.75037265
54	0xbf0cb9c0	-0.5497093
55	0xbf5070f0	-0.8142233
56	0xbf29e8a8	-0.6637063
57	0x3ebacb2c	0.36483133
58	0xbdbf4330	-0.09338987
59	0xbe2fda90	-0.17173219
60	0xbf209894	-0.62732816
61	0xbe884ca8	-0.26620984
62	0xbf7630c4	-0.9616816
63	0xbf478a62	-0.7794553
64	0x3ef846b4	0.48491442
65	0x3ecf8538	0.40531325
66	0x3d79a600	0.060949326
67	0xbec08f5c	-0.37609375
68	0xbdf3f8b0	-0.11912668
69	0xbf2c9428	-0.6741357
70	0x3e352d28	0.17693007
71	0xbf2d93d2	-0.6780368
72	0xbf46f670	-0.77719784
73	0xbe12b010	-0.14324975
74	0xbf75853a	-0.9590641
75	0x3e9b4564	0.30326378
76	0x3f2ad5e8	0.66732645
77	0x3f149afa	0.58048975
78	0xbe0bd148	-0.13654053
79	0x3e6de728	0.2323271
80	0x3e263340	0.16230488
81	0x3f4f929e	0.81083095
82	0xbf59125a	-0.8479363
83	0x3f644a46	0.8917583
84	0xbf591576	-0.8479837
85	0x3e261ec0	0.16222668
86	0x3f7f6d50	0.9977617
87	0xbf09cda2	-0.53829396
88	0x3f7f112a	0.99635565
89	0xbf3f3474	-0.7468941
90	0x3f5a80f8	0.8535304
91	0xbf4790c0	-0.77955246
92	0xbf1c4b4a	-0.6105238
93	0x3f7b2efa	0.98118556
94	0xbf72b0c8	-0.94800997
95	0x3f01e91c	0.5074632
96	0xbf1a6d8c	-0.60323405
97	0x3ef2f578	0.47452903
98	0x3f36e3e0	0.7144146
99	0xbf43d6c0	-0.7649956
100	0x3f1a8014	0.6035168
101	0xbe88ff94	-0.2675749
102	0x3dcedbf0	0.101005435
103	0xbee433f4	-0.44570887
104	0x3d149f20	0.036284566
105	0xbf45d470	-0.7727728
106	0xbf36c726	-0.71397626
107	0xbf454fee	-0.7707509
108	0xbf4a4506	-0.7901157
109	0xbf050d92	-0.5197383
110	0x3eaa5034	0.33264315
111	0xbf66e13a	-0.9018742
112	0x3f0502a2	0.5195714
113	0xbefe50a8	-0.4967091
114	0xbea5ce94	-0.3238417
115	0x3f1a7348	0.60332155
116	0x3f3127e8	0.6920152
117	0x3f3521c4	0.7075465
118	0xbf0a2998	-0.5396972
119	0xbef610fc	-0.48059833
120	0x3eae0e90	0.33995485
121	0x3f425952	0.7591754
122	0xbd92b100	-0.07162666
123	0xbefbbc00	-0.4916687
124	0x3f6d1382	0.9260789
125	0xbf243160	-0.6413784
126	0xbd3bd760	-0.045859694
127	0xbe91b7bc	-0.2846049
128	0x3eac4688	0.3364756
129	0xbf0c7ef6	-0.54881227
130	0xbf01c28c	-0.5068748
131	0x3d516ba0	0.05112803
132	0xbec0e830	-0.37677145
133	0x3e648c98	0.22319257
134	0x3f2987f2	0.6622306
135	0xbf32c8be	-0.6983756
136	0xbf7b04d4	-0.9805424
137	0xbe7c6728	-0.24648726
138	0x3d104260	0.03521955
139	0xbe95b0f0	-0.29236555
140	0xbf45d02c	-0.7727077
141	0xbc09a680	-0.008401513
142	0x3f460372	0.7734901
143	0xbf1a8e2e	-0.603732
144	0xbf7986ea	-0.9747149
145	0x3e2bb7b0	0.1676929
146	0xbdc43ce0	-0.095819235
147	0xbe975610	-0.29557848
148	0x3f56ad42	0.8385812
149	0xbf565180	-0.8371811
150	0x3ec98ac8	0.39363694
151	0xbf15430c	-0.5830543
152	0xbe8c7e9c	-0.27440345
153	0x3f0b285e	0.5435847
154	0xbdb38690	-0.087659
155	0xbf5ed4fa	-0.87043726
156	0xbdd6bc30	-0.10485113
157	0xbe0659a0	-0.13120127
158	0x3e853104	0.26013958
159	0x3f21f0a2	0.632578
160	0x3f12dd5e	0.5736903
161	0x3f6d6be0	0.9274273
162	0xbf2262e0	-0.6343212
163	0xbf37ac9e	-0.7174777
164	0xbedfb8f0	-0.43695784
165	0xbf2b2f40	-0.6686897
166	0xbf7d28b4	-0.98890233
167	0xbeb30cfc	-0.34970844
168	0x3da8b480	0.08237553
169	0xbedc0fdc	-0.4298085
170	0xbd595240	-0.053056955
171	0xbe99bc5c	-0.3002652
172	0xbd72dd40	-0.05929303
173	0x3f43b97a	0.7645489
174	0x3d93d5c0	0.07218504
175	0xbefb70d4	-0.4910952
176	0x3ee28cfc	0.44248188
177	0xbf4f4756	-0.80968225
178	0xbf0baff0	-0.54565334
179	0x3f353a08	0.70791674
180	0x3e85f588	0.26163888
181	0xbef7f5cc	-0.48429716
182	0x3e4b35e0	0.1984477
183	0x3f498294	0.7871487
184	0x3f7b4976	0.9815897
185	0x3f58075c	0.8438623
186	0xbf3814c0	-0.7190666
187	0x3f2e2952	0.680318
188	0xbf71025e	-0.9414424
189	0x3e25fda8	0.16210043
190	0x3e4f8b28	0.20267928
191	0x3f61d5f4	0.8821709
192	0x3e2e2748	0.17007172
193	0xbf3cb830	-0.7371855
194	0x3f1b8e42	0.60763943
195	0xbdd6c450	-0.104866624
196	0x3d285680	0.041098118
197	0xbf1cc8c2	-0.6124383
198	0x3f6efe0e	0.93356407
199	0xbe984db8	-0.29746795
200	0xbdeed1a0	-0.116610765
201	0x3f32e8aa	0.6988627
202	0xbed98b88	-0.42489266
203	0x3f246676	0.64218843
204	0x3ebb7ab0	0.3661704
205	0xbed1925c	-0.40931976
206	0x3eb5db34	0.355188
207	0x3f0cf75c	0.5506494
208	0x3ec90890	0.39264345
209	0xbe7325f8	-0.23744953
210	0xbf67a924	-0.90492463
211	0xbf796864	-0.9742491
212	0x3dc13070	0.09433067
213	0x3f7d6628	0.98984003
214	0xbd5bdf00	-0.053679466
215	0x3e978d8c	0.2960018
216	0x3f1119b8	0.5667987
217	0x3f059b7e	0.5219039
218	0x3eed004c	0.4628929
219	0x3f69a512	0.912675
220	0xbe9d7744	-0.30755055
221	0x3f60f43e	0.87872684
222	0xbf434d3a	-0.76289713
223	0x3f7c2e3a	0.98508036
224	0x3e0c02e0	0.13672972
225	0xbf265ddc	-0.6498697
226	0xbe7d1ff0	-0.24719214
227	0x3f187774	0.5955727
228	0x3f4b7bb8	0.79485655
229	0xbf1b4f68	-0.6066804
230	0x3df0e360	0.11762118
231	0x3ee42d04	0.44565594
232	0xbe96b69c	-0.29436195
233	0xbf23d9fc	-0.6400449
234	0x3f322fa4	0.69603944
235	0xbf397616	-0.7244581
236	0x3e949c38	0.29025435
237	0x3e86cf3c	0.26329982
238	0x3ee08478	0.43851066
239	0x3f690762	0.9102689
240	0x3f0e1306	0.5549778
241	0xbf61dbc0	-0.88225937
242	0x3f0722a0	0.5278721
243	0x3d0afa00	0.033929825
244	0x3de75630	0.11295736
245	0x3f5fe8ac	0.87464404
246	0xbee49efc	-0.44652545
247	0x3f4e8196	0.8066648
248	0xbcfa0600	-0.03052044
249	0xbf704744	-0.9385874
250	0x3e7340e0	0.23755217
251	0x3d7abec0	0.06121707
252	0xbe342588	-0.17592442
253	0x3f3236a6	0.69614637
254	0xbde34d70	-0.110987544
255	0xbf18ac30	-0.5963774

net.0.bias f4 [128]
0	0x00000000	0.0
1	0x00000000	0.0
2	0x00000000	0.0
3	0x00000000	0.0
4	0x00000000	0.0
5	0x00000000	0.0
6	0x00000000	0.0
7	0x00000000	0.0
8	0x00000000	0.0
9	0x00000000	0.0
10	0x00000000	0.0
11	0x00000000	0.0
12	0x00000000	0.0
13	0x00000000	0.0
14	0x00000000	0.0
15	0x00000000	0.0
16	0x00000000	0.0
17	0x00000000	0.0
18	0x00000000	0.0
19	0x00000000	0.0
20	0x00000000	0.0
21	0x00000000	0.0
22	0x00000000	0.0
23	0x00000000	0.0
24	0x00000000	0.0
25	0x00000000	0.0
26	0x00000000	0.0
27	0x00000000	0.0
28	0x00000000	0.0
29	0x00000000	0.0
30	0x00000000	0.0
31	0x00000000	0.0
32	0x00000000	0.0
33	0x00000000	0.0
34	0x00000000	0.0
35	0x00000000	0.0
36	0x00000000	0.0
37	0x00000000	0.0
38	0x00000000	0.0
39	0x00000000	0.0
40	0x00000000	0.0
41	0x00000000	0.0
42	0x00000000	0.0
43	0x00000000	0.0
44	0x00000000	0.0
45	0x00000000	0.0
46	0x00000000	0.0
47	0x00000000	0.0
48	0x00000000	0.0
49	0x00000000	0.0
50	0x00000000	0.0
51	0x00000000	0.0
52	0x00000000	0.0
53	0x00000000	0.0
54	0x00000000	0.0
55	0x00000000	0.0
56	0x00000000	0.0
57	0x00000000	0.0
58	0x00000000	0.0
59	0x00000000	0.0
60	0x00000000	0.0
61	0x00000000	0.0
62	0x00000000	0.0
63	0x00000000	0.0
64	0x00000000	0.0
65	0x00000000	0.0
66	0x00000000	0.0
67	0x00000000	0.0
68	0x00000000	0.0
69	0x00000000	0.0
70	0x00000000	0.0
71	0x00000000	0.0
72	0x00000000	0.0
73	0x00000000	0.0
74	0x00000000	0.0
75	0x00000000	0.0
76	0x00000000	0.0
77	0x00000000	0.0
78	0x00000000	0.0
79	0x00000000	0.0
80	0x00000000	0.0
81	0x00000000	0.0
82	0x00000000	0.0
83	0x00000000	0.0
84	0x00000000	0.0
85	0x00000000	0.0
86	0x00000000	0.0
87	0x00000000	0.0
88	0x00000000	0.0
89	0x00000000	0.0
90	0x00000000	0.0
91	0x00000000	0.0
92	0x00000000	0.0
93	0x00000000	0.0
94	0x00000000	0.0
95	0x00000000	0.0
96	0x00000000	0.0
97	0x00000000	0.0
98	0x00000000	0.0
99	0x00000000	0.0
100	0x00000000	0.0
101	0x00000000	0.0
102	0x00000000	0.0
103	0x00000000	0.0
104	0x00000000	0.0
105	0x00000000	0.0
106	0x00000000	0.0
107	0x00000000	0.0
108	0x00000000	0.0
109	0x00000000	0.0
110	0x00000000	0.0
111	0x00000000	0.0
112	0x00000000	0.0
113	0x00000000	0.0
114	0x00000000	0.0
115	0x00000000	0.0
116	0x00000000	0.0
117	0x00000000	0.0
118	0x00000000	0.0
119	0x00000000	0.0
120	0x00000000	0.0
121	0x00000000	0.0
122	0x00000000	0.0
123	0x00000000	0.0
124	0x00000000	0.0
125	0x00000000	0.0
126	0x00000000	0.0
127	0x00000000	0.0

net.2.weight f4 [128, 128]
0	0xb98f0e7b	-0.00027285874
1	0x3e1d2f9f	0.15350197
2	0xbdd37487	-0.1032496
3	0x3e5b442e	0.21412727
4	0xbd46eebb	-0.048567515
5	0xbdaa11c3	-0.08304169
6	0x3dca7663	0.09885862
7	0x3d8c594f	0.06852972
8	0x3dc698a8	0.096970856
9	0xbdde2fd8	-0.10848969
10	0x3e2ad9f8	0.16684711
11	0xbd598ecc	-0.053114697
12	0xbdfd2956	-0.123614
13	0x3e0acc13	0.1355441
14	0x3e3cf26f	0.18451856
15	0x3e0f5119	0.1399578
16	0xbdded36e	-0.10880171
17	0xbe1f0fdf	-0.15533398
18	0x3dd59668	0.10429078
19	0xbd597e88	-0.053099185
20	0xbe0c01f8	-0.13672626
21	0xbdf2231f	-0.11823105
22	0x3da1f91b	0.07908841
23	0xbe46dd4c	-0.19420356
24	0xbe3580b8	-0.17724884
25	0x3c79a003	0.015235904
26	0x3d9a5e94	0.075375706
27	0xbe59ea49	-0.21280779
28	0xbdbf71f2	-0.09347905
29	0x3c88b2d7	0.01668684
30	0x3e1a8aba	0.15091982
31	0x3dfe8fa4	0.12429741
32	0xbd57170f	-0.052512225
33	0xbd875fed	-0.06610093
34	0xbd65213a	-0.05593989
35	0xbbc0210c	-0.0058633145
36	0xbe41076c	-0.18850487
37	0xbe4579fa	-0.19284812
38	0x3d9a611f	0.07538056
39	0x3e0c8795	0.13723595
40	0x3d2b9700	0.04189205
41	0xbddd873d	-0.1081681
42	0x3e38caac	0.18046063
43	0x3e12e385	0.14344604
44	0x3cee3233	0.029076671
45	0xbdf8dd55	-0.12151591
46	0xbe45f585	-0.1933194
47	0x3e1c82ae	0.15284225
48	0x3d2b56d5	0.041830856
49	0x3e467f71	0.19384553
50	0x3dca89ac	0.0988954
51	0xbe30ab14	-0.17252761
52	0xbe13d240	-0.14435673
53	0x3df853f9	0.121253915
54	0x3e561226	0.2090536
55	0x3db8fd68	0.090327084
56	0x3e52d844	0.20590311
57	0x3e3fa3f2	0.18714884
58	0x3dd1c913	0.1024343
59	0xbe029c71	-0.1275499
60	0x3bd350ed	0.006448856
61	0xbda85279	-0.082188554
62	0x3d4a5aa9	0.049402867
63	0x3c08733e	0.008328257
64	0x3d20c7c0	0.039252996
65	0xbd3c0b21	-0.04590905
66	0xbe52bc01	-0.2057953
67	0xbe3886e9	-0.18020214
68	0xbdef141d	-0.11673758
69	0xbe29b019	-0.16571082
70	0x3d9f956c	0.07792172
71	0x3dc35077	0.09536832
72	0xbe27a63b	-0.16372006
73	0xbe4e0fc9	-0.20123209
74	0xbd126aa9	-0.03574625
75	0xbdf767e3	-0.12080362
76	0xbe10d0c6	-0.14142141
77	0x3e38776b	0.18014304
78	0xbe52aef9	-0.2057456
79	0xbdc1554c	-0.09440097
80	0x3a5210b6	0.00080133544
81	0xbc0108b3	-0.007875609
82	0xbe25b104	-0.16180807
83	0xbe31d9e6	-0.17368278
84	0x3e19e47f	0.1502857
85	0x3c25f7f7	0.01012992
86	0xbc835962	-0.016033832
87	0xbe56e228	-0.2098471
88	0x3e3a485f	0.1819167
89	0x3de1e1d0	0.110293984
90	0x3d84076e	0.064467296
91	0x3aa14dd3	0.0012306519
92	0xbdb287d0	-0.087173104
93	0xbdd90334	-0.10596314
94	0xbe31f830	-0.17379832
95	0xbe2b6eb9	-0.16741456
96	0x3e0f7c10	0.1401217
97	0x3d87fe4d	0.06640301
98	0xbde72102	-0.112855926
99	0x3da2f86c	0.07957539
100	0xbd89e081	-0.06732274
101	0x3e14d65d	0.14534898
102	0xbd0ffabf	-0.03515124
103	0xbd49ab74	-0.049235776
104	0xbe30d288	-0.17267811
105	0x3e0cfce1	0.1376834
106	0xbe46f550	-0.19429517
107	0x3d68dba4	0.05685009
108	0xbd39ec67	-0.045391466
109	0xbd0ab9f1	-0.033868734
110	0xbdd473a4	-0.10373619
111	0xbe18e3cf	-0.14930652
112	0xbe5bae2c	-0.2145316
113	0x3dfee2c4	0.12445596
114	0x3e38e4a5	0.18055971
115	0x3e0bb46d	0.13643046
116	0xbda3e169	-0.08001978
117	0xbe460261	-0.19336845
118	0xbd520ad0	-0.051279843
119	0x3d50f7a9	0.051017437
120	0x3db41abf	0.08794164
121	0xbd97671d	-0.07392714
122	0xbc548557	-0.012971244
123	0xbdae17b9	-0.085006185
124	0xbe57155c	-0.21004242
125	0x3e1a35f8	0.1505965
126	0x3c2a555a	0.010396326
127	0x3db9e53f	0.09076928
128	0x3d2039ab	0.039117496
129	0x3e211559	0.157308
130	0xbe45bb2d	-0.19309683
131	0x3e270f4c	0.16314429
132	0x3d786f7f	0.060653206
133	0xbe3cc000	-0.18432617
134	0xbe285e2c	-0.16442174
135	0xbe3cf5c7	-0.18453132
136	0x3e303fe5	0.17211874
137	0x3e127efb	0.14306252
138	0xbbfa1525	-0.007631915
139	0xbe54a98b	-0.207678
140	0x3da03885	0.0782328
141	0x3df57279	0.119847246
142	0x3dedc16e	0.116091594
143	0xbdd0712b	-0.10177835
144	0xbe11bae3	-0.14231448
145	0xbe5b1a25	-0.21396692
146	0x3e367d33	0.17821197
147	0x3d1181c8	0.03552416
148	0x3e40c2a4	0.1882425
149	0x3e59f8b9	0.21286286
150	0xbd87d994	-0.066332966
151	0xbe5a2af7	-0.21305452
152	0x3d6bddc8	0.057584554
153	0xbe035edc	-0.12829155
154	0xbde9e1f0	-0.11420047
155	0xbd973ad3	-0.07384267
156	0xbda5eee2	-0.08102204
157	0xbd8193a1	-0.06326986
158	0xbe0080d4	-0.12549144
159	0xbb89b390	-0.0042023137
160	0xbe3c2b88	-0.18375981
161	0xbdb58353	-0.08862939
162	0xbca3a215	-0.019974748
163	0xbd93539c	-0.071936816
164	0x3d99cfe0	0.07510352
165	0x3dcc1f8d	0.09966955
166	0xbaeb3b13	-0.0017946683
167	0x3d851fea	0.06500228
168	0xbdb46176	-0.08807652
169	0x3dbef270	0.09323585
170	0x3cfe4d3d	0.03104269
171	0xbc94fb1c	-0.018186145
172	0x39939a6b	0.00028153075
173	0x3e2ee689	0.1708013
174	0xbde35851	-0.111008294
175	0xbdd33b88	-0.10314089
176	0x3bc32e6b	0.005956461
177	0xbccbb279	-0.024865376
178	0xbe5b0fa6	-0.21392688
179	0x3d9dc00d	0.077026464
180	0xbd3d3c53	-0.046200108
181	0xbdb19978	-0.0867185
182	0xbe06b023	-0.13153128
183	0xbcf2272e	-0.029559698
184	0xbc733197	-0.014843366
185	0x3a822854	0.0009930232
186	0x3e561e3b	0.2090997
187	0xbd262bed	-0.040569235
188	0x3e36db5a	0.17857113
189	0xbe14e0a2	-0.14538816
190	0xbe216761	-0.15762092
191	0xbda01c32	-0.07817878
192	0x3dd001bc	0.10156581
193	0x3cefbd8b	0.029265186
194	0xbe205fb3	-0.15661506
195	0xbe33a7e2	-0.17544511
196	0x3e2bdddf	0.16783856
197	0x3d23f1b4	0.040025428
198	0xbe2ceb6c	-0.16886681
199	0x3e1af425	0.15132196
200	0xbe1fca5b	-0.15604536
201	0x3e0b531d	0.13605924
202	0x3ce5d833	0.028057193
203	0x3ca5a587	0.020220531
204	0xbe427a05	-0.1899186
205	0x3d14f0c5	0.03636243
206	0xbd94f610	-0.07273495
207	0x3d5f44f2	0.05450911
208	0xbdd38c32	-0.103294745
209	0xbe3a61eb	-0.18201415
210	0x3c925749	0.017863886
211	0xbd4daada	-0.050211765
212	0x3c9f4025	0.019439766
213	0xbe3399ac	-0.1753909
214	0xbdc94c49	-0.09829003
215	0xbe2503a3	-0.16114669
216	0xbe49c7a4	-0.19705063
217	0x3dd26d00	0.10274696
218	0xbc7877f1	-0.015165315
219	0xbd63696c	-0.05552046
220	0xbd12dbec	-0.035854265
221	0x3dfdf988	0.1240111
222	0xbe210199	-0.15723266
223	0xbd84c477	-0.06482785
224	0x3e2ff9ee	0.17185184
225	0x3db24c0b	0.0870591
226	0x3e42c18e	0.19019148
227	0xbe0616b4	-0.13094598
228	0x3e09a0f9	0.13440312
229	0xbe0cdbcd	-0.13755722
230	0xbe24ad50	-0.16081738
231	0x3c7401c3	0.014892998
232	0x3d7c0fc5	0.061538476
233	0x3cbaade1	0.02278799
234	0xbd825d8f	-0.06365501
235	0x3d73b633	0.05949993
236	0xbe1eae38	-0.15496147
237	0x3dbd5e46	0.09246497
238	0x3d9b64a2	0.075875536
239	0x3e4af8fa	0.1982154
240	0xbdd2a0eb	-0.10284599
241	0xbdc9ad29	-0.09847481
242	0x3c7a1bbf	0.015265404
243	0x3e0f84c0	0.14015484
244	0xbdafe198	-0.085879505
245	0xbd3f9da0	-0.046781182
246	0xbe0cef77	-0.13763224
247	0x3964bd2c	0.00021814246
248	0x3db2135c	0.08695099
249	0xbd1f6408	-0.038913757
250	0xbd663e80	-0.05621195
251	0x3e5948e4	0.21219212
252	0xbe237996	-0.1596435
253	0xb9644077	-0.0002176779
254	0xbdb4b51a	-0.08823605
255	0xbe47b8b1	-0.19504048

net.2.bias f4 [128]
0	0x00000000	0.0
1	0x00000000	0.0
2	0x00000000	0.0
3	0x00000000	0.0
4	0x00000000	0.0
5	0x00000000	0.0
6	0x00000000	0.0
7	0x00000000	0.0
8	0x00000000	0.0
9	0x00000000	0.0
10	0x00000000	0.0
11	0x00000000	0.0
12	0x00000000	0.0
13	0x00000000	0.0
14	0x00000000	0.0
15	0x00000000	0.0
16	0x00000000	0.0
17	0x00000000	0.0
18	0x00000000	0.0
19	0x00000000	0.0
20	0x00000000	0.0
21	0x00000000	0.0
22	0x00000000	0.0
23	0x00000000	0.0
24	0x00000000	0.0
25	0x00000000	0.0
26	0x00000000	0.0
27	0x00000000	0.0
28	0x00000000	0.0
29	0x00000000	0.0
30	0x00000000	0.0
31	0x00000000	0.0
32	0x00000000	0.0
33	0x00000000	0.0
34	0x00000000	0.0
35	0x00000000	0.0
36	0x00000000	0.0
37	0x00000000	0.0
38	0x00000000	0.0
39	0x00000000	0.0
40	0x00000000	0.0
41	0x00000000	0.0
42	0x00000000	0.0
43	0x00000000	0.0
44	0x00000000	0.0
45	0x00000000	0.0
46	0x00000000	0.0
47	0x00000000	0.0
48	0x00000000	0.0
49	0x00000000	0.0
50	0x00000000	0.0
51	0x00000000	0.0
52	0x00000000	0.0
53	0x00000000	0.0
54	0x00000000	0.0
55	0x00000000	0.0
56	0x00000000	0.0
57	0x00000000	0.0
58	0x00000000	0.0
59	0x00000000	0.0
60	0x00000000	0.0
61	0x00000000	0.0
62	0x00000000	0.0
63	0x00000000	0.0
64	0x00000000	0.0
65	0x00000000	0.0
66	0x00000000	0.0
67	0x00000000	0.0
68	0x00000000	0.0
69	0x00000000	0.0
70	0x00000000	0.0
71	0x00000000	0.0
72	0x00000000	0.0
73	0x00000000	0.0
74	0x00000000	0.0
75	0x00000000	0.0
76	0x00000000	0.0
77	0x00000000	0.0
78	0x00000000	0.0
79	0x00000000	0.0
80	0x00000000	0.0
81	0x00000000	0.0
82	0x00000000	0.0
83	0x00000000	0.0
84	0x00000000	0.0
85	0x00000000	0.0
86	0x00000000	0.0
87	0x00000000	0.0
88	0x00000000	0.0
89	0x00000000	0.0
90	0x00000000	0.0
91	0x00000000	0.0
92	0x00000000	0.0
93	0x00000000	0.0
94	0x00000000	0.0
95	0x00000000	0.0
96	0x00000000	0.0
97	0x00000000	0.0
98	0x00000000	0.0
99	0x00000000	0.0
100	0x00000000	0.0
101	0x00000000	0.0
102	0x00000000	0.0
103	0x00000000	0.0
104	0x00000000	0.0
105	0x00000000	0.0
106	0x00000000	0.0
107	0x00000000	0.0
108	0x00000000	0.0
109	0x00000000	0.0
110	0x00000000	0.0
111	0x00000000	0.0
112	0x00000000	0.0
113	0x00000000	0.0
114	0x00000000	0.0
115	0x00000000	0.0
116	0x00000000	0.0
117	0x00000000	0.0
118	0x00000000	0.0
119	0x00000000	0.0
120	0x00000000	0.0
121	0x00000000	0.0
122	0x00000000	0.0
123	0x00000000	0.0
124	0x00000000	0.0
125	0x00000000	0.0
126	0x00000000	0.0
127	0x00000000	0.0

net.4.weight f4 [128, 128]
0	0x3e1fa8a5	0.15591677
1	0xbbde6529	-0.0067869616
2	0x3debf6e8	0.11521703
3	0x3e1c438c	0.15260142
4	0x3dc53d49	0.0963083
5	0xbcdf8b3a	-0.027288068
6	0x3de02ac4	0.10945657
7	0xbde5fe9e	-0.11230205
8	0x3e5969ee	0.21231815
9	0xbe0cc8a8	-0.1374842
10	0xbcb38f46	-0.021918904
11	0x3e06b683	0.1315556
12	0x3b5ec8f8	0.0033994298
13	0xbda97af4	-0.082754046
14	0xbe1276d5	-0.14303143
15	0x3e302759	0.1720251
16	0xbdf6e578	-0.120554864
17	0x3e3f4154	0.18677264
18	0xbdb8ff8c	-0.09033117
19	0xbd3e9006	-0.04652407
20	0x3d6b2be5	0.057414908
21	0x3d7219eb	0.05910675
22	0xbdeb403f	-0.11486863
23	0x3e3a3e28	0.18187773
24	0x3d36136f	0.044452127
25	0x3d9da4b0	0.07697427
26	0x3c8b3fb7	0.016998155
27	0xbe2185d8	-0.15773714
28	0x3e429a6a	0.19004217
29	0xbe2b7e4b	-0.16747396
30	0x3e0a464f	0.13503383
31	0x3de32203	0.110904716
32	0xbbe1b3b3	-0.006887877
33	0x3de0034f	0.10938131
34	0x3df019c2	0.11723663
35	0xbe1a88d8	-0.15091264
36	0xbe23b88b	-0.15988366
37	0x3e18fb9a	0.14939728
38	0x3e45f151	0.19330336
39	0x3d4c9aad	0.049952198
40	0x3dd80f98	0.10549849
41	0x3e1d003d	0.15332122
42	0x3d68c59c	0.05682908
43	0x3de33835	0.11094705
44	0x3df15dfa	0.11785503
45	0xbe1acdcf	-0.15117572
46	0x3e4445ab	0.19167201
47	0x3db7615b	0.08954116
48	0x3e445b14	0.19175369
49	0x3e151934	0.14560395
50	0x3e212747	0.1573764
51	0xbca83fd4	-0.020538248
52	0xbe365193	-0.17804556
53	0xbe0bb5f5	-0.1364363
54	0xbd15c74d	-0.03656702
55	0xbe266c7e	-0.16252324
56	0xbd4bfcd1	-0.04980165
57	0xbe5980a4	-0.21240479
58	0xbe0022b9	-0.12513246
59	0xbbb7cdc2	-0.005609245
60	0x3df66765	0.1203144
61	0x3e1f4e04	0.15557104
62	0x3df2a9bf	0.11848783
63	0xbe26daf7	-0.16294466
64	0x3dba9ce2	0.09111954
65	0x3da10864	0.078629285
66	0x3d809685	0.06278709
67	0x3e3d3e09	0.18480696
68	0x3d883cce	0.066522226
69	0x3e3200f5	0.17383178
70	0xbdc44b1c	-0.095846385
71	0x3c680407	0.014161116
72	0xbde4ad04	-0.111658126
73	0xbd11de64	-0.03561248
74	0x3e58d94e	0.21176645
75	0x3e52b318	0.20576131
76	0x3cb0595d	0.021526987
77	0x3e5956fe	0.21224591
78	0xbe02b167	-0.12762986
79	0xbe3f2035	-0.1866463
80	0xbe4220d5	-0.18957837
81	0x3dce5954	0.10075632
82	0xbcb3feab	-0.021972021
83	0xbde2b4a0	-0.11069608
84	0x3db85bcd	0.090018846
85	0xbe53bda7	-0.20677815
86	0x3e368487	0.17823993
87	0xbc58fa1c	-0.0132432245
88	0x3db10b69	0.086447544
89	0x3d3a6fc5	0.045516748
90	0x3e385679	0.18001737
91	0x3db8ebc3	0.09029343
92	0xbe5d6a6d	-0.2162263
93	0xbd95c4ef	-0.07312953
94	0xbd0b1d4b	-0.033963483
95	0x3e429ccf	0.1900513
96	0xbd61c73d	-0.05512165
97	0x3e3371ab	0.1752383
98	0x3dd34882	0.10316564
99	0xbe27eded	-0.16399355
100	0xbe27bffe	-0.16381833
101	0xbe053ea6	-0.1301218
102	0x3e2eeaa6	0.17081699
103	0x3e2c87bc	0.16848654
104	0xbe306d62	-0.17229226
105	0x3c6301fc	0.013855454
106	0xbe30b48f	-0.17256378
107	0xbdbbe676	-0.09174816
108	0xbe569f01	-0.20959093
109	0xbd073276	-0.033007108
110	0xbdef91f8	-0.11697763
111	0x3e40705e	0.18792865
112	0x3d9d100f	0.076690786
113	0xbdd3a441	-0.10334063
114	0x3a6411b3	0.0008700147
115	0x3e36203b	0.17785732
116	0x3dd75513	0.105142735
117	0xbd8ae61f	-0.06782173
118	0xbd4789b2	-0.0487153
119	0xbcddc344	-0.027070649
120	0x3dcfdf0e	0.10149966
121	0x3e212acf	0.15738986
122	0xbc52d036	-0.012867024
123	0xbe56eeee	-0.20989582
124	0xbdce31fb	-0.10068127
125	0x3df83222	0.12118937
126	0xbe1619bb	-0.14658253
127	0xbd6ffcec	-0.058590814
128	0xbd89ed93	-0.06734767
129	0xbe59e05c	-0.21276993
130	0x3d819080	0.06326389
131	0xbcfe13a6	-0.031015228
132	0xbe26794e	-0.16257212
133	0xbe31bc90	-0.17357087
134	0xbd90ba2a	-0.07066758
135	0xbe3a7efa	-0.182125
136	0x3e34e9bd	0.17667289
137	0x3e32d5b4	0.17464334
138	0x3d9f8759	0.077894874
139	0xbe0ae3f5	-0.13563521
140	0x3e453a33	0.19260482
141	0x3dcb3bf0	0.099235415
142	0xbe2f5eb4	-0.1712597
143	0xbdcefcdf	-0.10106825
144	0xbdb3d395	-0.087805904
145	0xbe074320	-0.132092
146	0xbe1f9fe3	-0.15588336
147	0x3e5b4c68	0.21415865
148	0x3e3ac981	0.1824093
149	0xbdea5ab2	-0.1144308
150	0xbde4d670	-0.11173713
151	0x3d2ca927	0.042153504
152	0xbd31d13f	-0.043412443
153	0xbc9f28df	-0.019428669
154	0xbdf1753a	-0.11789937
155	0xbdcf32fc	-0.101171464
156	0x3c3526e7	0.011056638
157	0xbd95e9a8	-0.07319957
158	0x3b6be68c	0.003599557
159	0xbe5a69f4	-0.2132948
160	0x3e0909ee	0.13382694
161	0x3dc471a2	0.09591986
162	0x3d22169b	0.03957234
163	0xbdc0025b	-0.09375449
164	0x3d4e73b7	0.050403323
165	0xbde71c50	-0.11284697
166	0xbdf07beb	-0.117423855
167	0x3dc93834	0.09825173
168	0xbd46e766	-0.048560522
169	0x3e33cc59	0.17558421
170	0x3e1a8b41	0.15092184
171	0xbdc1fe4f	-0.09472334
172	0x3d2825c4	0.04105164
173	0xbc5eaf50	-0.013591602
174	0x3d5e0315	0.054202158
175	0x3b8c4f7c	0.004281936
176	0x3e1b814d	0.15186043
177	0x3e21f378	0.15815532
178	0x3e4f96b0	0.20272326
179	0xbd38e2c7	-0.045138147
180	0x3e5d8011	0.21630885
181	0x3d69ea15	0.057108004
182	0xbde9bdb0	-0.11413133
183	0x3e21855d	0.1577353
184	0x3e2f4dde	0.17119548
185	0xbe5c97b9	-0.21542253
186	0xbd7f1a53	-0.062280964
187	0xbe4d176f	-0.2002847
188	0xbe2e51fa	-0.17023459
189	0xbd92f432	-0.07175483
190	0xbdc8cae9	-0.09804327
191	0xbe3da7d2	-0.1852105
192	0xbe04f950	-0.1298573
193	0xbd91c590	-0.0711776
194	0xbe2149c5	-0.15750797
195	0xbe22819a	-0.15869752
196	0xbdcbba14	-0.09947601
197	0x3d4ed3d1	0.050494973
198	0x3e5daa04	0.21646887
199	0xbe2e3f08	-0.17016232
200	0x3e0c978e	0.13729689
201	0xbdaecea8	-0.0853551
202	0xbd22b454	-0.039722756
203	0x3da08cee	0.0783938
204	0x3d84890c	0.06471452
205	0xbcaa24b1	-0.020769449
206	0x3c91371d	0.017726475
207	0xbe5c7ef9	-0.21532811
208	0x3e025227	0.12726651
209	0x3e01d4c3	0.12678818
210	0xbd9e7d62	-0.077387586
211	0xbc871203	-0.01648808
212	0xbda420ab	-0.080140434
213	0x3da87524	0.08225468
214	0xbe41366d	-0.18868418
215	0xbda19542	-0.07889797
216	0x3d8f0761	0.06983829
217	0x3c832b60	0.016011894
218	0xbe287c28	-0.16453612
219	0xbe349988	-0.17636693
220	0x3dfe5a8e	0.12419616
221	0x3d8f2d7c	0.06991097
222	0xbe14aace	-0.14518282
223	0xbe174834	-0.14773637
224	0xbe2f893d	-0.17142196
225	0xbd54017c	-0.051759228
226	0xbdb3c0b8	-0.087769926
227	0xbe5c70f4	-0.21527463
228	0x3e3448c1	0.17605878
229	0xbda5e446	-0.0810018
230	0x3d8a2d67	0.06746941
231	0x3dfd21fd	0.123599984
232	0xbe1d61c8	-0.15369332
233	0xbe097f16	-0.13427386
234	0xbd4e8dab	-0.050428074
235	0xbd41e7e6	-0.047340296
236	0x3e42adbf	0.19011591
237	0x3d86aba9	0.0657571
238	0x3d1e4460	0.038639426
239	0x3ddf3395	0.1089851
240	0x3e36a8e4	0.17837864
241	0x3dec6cdd	0.115442015
242	0x3e5c7738	0.21529853
243	0x3e16930e	0.14704534
244	0x3d8f9a82	0.07011892
245	0x3e270f61	0.1631446
246	0x3e2c16ac	0.16805524
247	0xbd76be98	-0.060240358
248	0xbe27d2f0	-0.1638906
249	0x3df0b232	0.11752738
250	0xbce11561	-0.027476015
251	0x3d27f7f9	0.04100797
252	0xbd5bab71	-0.053630296
253	0xbd0707ad	-0.032966305
254	0x3d81970a	0.063276365
255	0x3df0dc7e	0.117608055

net.4.bias f4 [128]
0	0x00000000	0.0
1	0x00000000	0.0
2	0x00000000	0.0
3	0x00000000	0.0
4	0x00000000	0.0
5	0x00000000	0.0
6	0x00000000	0.0
7	0x00000000	0.0
8	0x00000000	0.0
9	0x00000000	0.0
10	0x00000000	0.0
11	0x00000000	0.0
12	0x00000000	0.0
13	0x00000000	0.0
14	0x00000000	0.0
15	0x00000000	0.0
16	0x00000000	0.0
17	0x00000000	0.0
18	0x00000000	0.0
19	0x00000000	0.0
20	0x00000000	0.0
21	0x00000000	0.0
22	0x00000000	0.0
23	0x00000000	0.0
24	0x00000000	0.0
25	0x00000000	0.0
26	0x00000000	0.0
27	0x00000000	0.0
28	0x00000000	0.0
29	0x00000000	0.0
30	0x00000000	0.0
31	0x00000000	0.0
32	0x00000000	0.0
33	0x00000000	0.0
34	0x00000000	0.0
35	0x00000000	0.0
36	0x00000000	0.0
37	0x00000000	0.0
38	0x00000000	0.0
39	0x00000000	0.0
40	0x00000000	0.0
41	0x00000000	0.0
42	0x00000000	0.0
43	0x00000000	0.0
44	0x00000000	0.0
45	0x00000000	0.0
46	0x00000000	0.0
47	0x00000000	0.0
48	0x00000000	0.0
49	0x00000000	0.0
50	0x00000000	0.0
51	0x00000000	0.0
52	0x00000000	0.0
53	0x00000000	0.0
54	0x00000000	0.0
55	0x00000000	0.0
56	0x00000000	0.0
57	0x00000000	0.0
58	0x00000000	0.0
59	0x00000000	0.0
60	0x00000000	0.0
61	0x00000000	0.0
62	0x00000000	0.0
63	0x00000000	0.0
64	0x00000000	0.0
65	0x00000000	0.0
66	0x00000000	0.0
67	0x00000000	0.0
68	0x00000000	0.0
69	0x00000000	0.0
70	0x00000000	0.0
71	0x00000000	0.0
72	0x00000000	0.0
73	0x00000000	0.0
74	0x00000000	0.0
75	0x00000000	0.0
76	0x00000000	0.0
77	0x00000000	0.0
78	0x00000000	0.0
79	0x00000000	0.0
80	0x00000000	0.0
81	0x00000000	0.0
82	0x00000000	0.0
83	0x00000000	0.0
84	0x00000000	0.0
85	0x00000000	0.0
86	0x00000000	0.0
87	0x00000000	0.0
88	0x00000000	0.0
89	0x00000000	0.0
90	0x00000000	0.0
91	0x00000000	0.0
92	0x00000000	0.0
93	0x00000000	0.0
94	0x00000000	0.0
95	0x00000000	0.0
96	0x00000000	0.0
97	0x00000000	0.0
98	0x00000000	0.0
99	0x00000000	0.0
100	0x00000000	0.0
101	0x00000000	0.0
102	0x00000000	0.0
103	0x00000000	0.0
104	0x00000000	0.0
105	0x00000000	0.0
106	0x00000000	0.0
107	0x00000000	0.0
108	0x00000000	0.0
109	0x00000000	0.0
110	0x00000000	0.0
111	0x00000000	0.0
112	0x00000000	0.0
113	0x00000000	0.0
114	0x00000000	0.0
115	0x00000000	0.0
116	0x00000000	0.0
117	0x00000000	0.0
118	0x00000000	0.0
119	0x00000000	0.0
120	0x00000000	0.0
121	0x00000000	0.0
122	0x00000000	0.0
123	0x00000000	0.0
124	0x00000000	0.0
125	0x00000000	0.0
126	0x00000000	0.0
127	0x00000000	0.0

net.6.weight f4 [64, 128]
0	0xbe0d3269	-0.13788761
1	0x3e0f154f	0.13972972
2	0xbe121dc3	-0.14269166
3	0xbe3fe241	-0.18738653
4	0x3d773482	0.06035281
5	0x3e0f16c7	0.13973533
6	0xbd938723	-0.0720351
7	0x3e4f13d1	0.20222403
8	0x3e39ea20	0.18155718
9	0xbe0f3093	-0.13983373
10	0x3e3cf8db	0.18454306
11	0x3dcbe990	0.09956658
12	0xbe175d78	-0.14781749
13	0x3e1dc377	0.15406595
14	0x3da4eb52	0.08052696
15	0xbda7e495	-0.081978954
16	0xbe4127c0	-0.1886282
17	0x3db445f4	0.08802405
18	0xbd1556b8	-0.036459655
19	0xbd82e680	-0.06391621
20	0xbe1cd44a	-0.15315357
21	0xbcbdc064	-0.023163028
22	0xbe523419	-0.20527686
23	0xbe3f2b10	-0.18668771
24	0xbdb6d0b4	-0.08926526
25	0xbe10c0e3	-0.1413608
26	0x3dceffa2	0.10107352
27	0x3d179122	0.037003644
28	0x3e45e80e	0.19326803
29	0x3e42e63f	0.19033144
30	0x390a0cc4	0.00013165461
31	0xbca790d6	-0.020454805
32	0x3ded4c26	0.1158679
33	0x3d4f7c2e	0.050655536
34	0xbd91595d	-0.07097123
35	0x3ca77a44	0.020444043
36	0x3dccb737	0.09995883
37	0xbe566609	-0.20937361
38	0x3d9aba91	0.07555116
39	0xbe40db79	-0.18833722
40	0x3c9e7138	0.019341096
41	0xbada230d	-0.0016642526
42	0xbe5b6e98	-0.21428907
43	0xbe439fd3	-0.19103937
44	0x3dc35ebd	0.09539554
45	0xbe20b027	-0.15692197
46	0xbdf58c5f	-0.11989664
47	0xbd99a50f	-0.075021856
48	0x3d38b5c5	0.045095224
49	0x3dbc3653	0.09190049
50	0x3cebdf9f	0.028793154
51	0xbe2af850	-0.16696286
52	0x3e40efbe	0.18841454
53	0x3e225110	0.15851235
54	0x3e0690d0	0.13141179
55	0xbe0741a6	-0.13208637
56	0xbe3ee0c7	-0.18640433
57	0xbdfeefd2	-0.12448086
58	0x3d81d9ab	0.06340345
59	0x3bba8d67	0.005693126
60	0xbdc196f0	-0.09452617
61	0xbe3d3473	-0.18477039
62	0xbe348b30	-0.17631221
63	0xbdf5f14e	-0.12008916
64	0xbd8d3d51	-0.06896461
65	0xbd867ecd	-0.06567154
66	0xbe55736c	-0.20844811
67	0xbd3dcac2	-0.046335943
68	0xbe44a791	-0.19204547
69	0x3d75680d	0.059913684
70	0xbcb4ff56	-0.02209441
71	0xbd86f5b8	-0.06589836
72	0xbe01a855	-0.1266187
73	0x3dbcfb2b	0.09227594
74	0x3dddc7da	0.10829134
75	0x3d9e4185	0.077273406
76	0x3d8c1662	0.06840207
77	0x3d6b76a4	0.05748619
78	0xbe1bb87d	-0.15207095
79	0xbda36db7	-0.07979911
80	0x3dd13b09	0.10216338
81	0x3e31c76d	0.17361231
82	0xbe10e6eb	-0.14150588
83	0xbdef22a5	-0.1167653
84	0xbe4f230d	-0.20228215
85	0xbd4ef53e	-0.05052685
86	0xbdf64e8a	-0.12026699
87	0x3e3c2a0d	0.18375416
88	0x3d041504	0.032246605
89	0xbd086f7b	-0.03330944
90	0x3dd79adb	0.10527583
91	0x3e2c834c	0.16846961
92	0xbd0187c3	-0.031623613
93	0xbda76995	-0.08174435
94	0x3e55b6b2	0.20870474
95	0xbe5779ec	-0.21042603
96	0xbcdcce74	-0.026953913
97	0x3e328d81	0.17436792
98	0xbd991665	-0.074749745
99	0x3da8aba6	0.08235864
100	0x3d58fee7	0.05297747
101	0xbc988629	-0.01861866
102	0x3e2acbd9	0.16679324
103	0xbbf75bfe	-0.007548808
104	0xbe5a5115	-0.21319993
105	0xbc81d75a	-0.015849758
106	0x3e0dfd24	0.13866097
107	0xbe4f1c1c	-0.20225567
108	0xbcb2d46e	-0.02182981
109	0xbe1d2ae9	-0.153484
110	0xbd62cec8	-0.055372983
111	0x3d68c92f	0.05683249
112	0x3da91465	0.08255843
113	0x3e51a40e	0.20472738
114	0x3dbb16ab	0.09135183
115	0xbd84c9f2	-0.064838305
116	0x3d900788	0.070326865
117	0x3e2ab025	0.16668756
118	0x3daf5e56	0.08562915
119	0x3dc040f4	0.09387389
120	0x3d17d717	0.03707036
121	0x3e0f4bd9	0.13993777
122	0x3e18fea4	0.14940888
123	0x3e5a3ba5	0.21311815
124	0x3d1cf131	0.038315956
125	0x3d58dcd4	0.052944973
126	0xbe18e2e3	-0.149303
127	0xbdc1ea1e	-0.094684824
128	0x3d04add0	0.032392323
129	0x3d6342f7	0.055483785
130	0x3d94a087	0.07257181
131	0xbda68e23	-0.08132579
132	0xbe444ebe	-0.19170663
133	0xbdf4e83f	-0.1195836
134	0x3e3c8525	0.18410166
135	0x3db3bb6e	0.08775984
136	0xbc8742e3	-0.016511386
137	0xbddf507d	-0.10904024
138	0xbe50a578	-0.20375621
139	0x3d68c7ab	0.056831043
140	0xbc8a9a32	-0.01691923
141	0xbe1fc1d5	-0.15601285
142	0xbe2e490a	-0.1702005
143	0xbe0f279c	-0.13979954
144	0xbcf99f26	-0.030471396
145	0x3e564768	0.20925677
146	0xbdcb0f79	-0.099150605
147	0xbd010bcf	-0.031505402
148	0xbc854cf9	-0.016272055
149	0xbe4e8606	-0.20168313
150	0xbda31ab6	-0.07964079
151	0x3d6f7b74	0.058467343
152	0x3df564ab	0.119820915
153	0x3e297cbf	0.16551493
154	0xbe20a69e	-0.1568856
155	0xbddfc4a1	-0.10926176
156	0xbdfc8049	-0.12329156
157	0x3dbff0ff	0.09372138
158	0xbc9cf5bd	-0.019160146
159	0xbd5a9433	-0.05336399
160	0x3e3415d4	0.17586452
161	0x3d69a914	0.05704601
162	0x3d374741	0.044745687
163	0x3e5be421	0.21473743
164	0x3d4929a9	0.049111996
165	0xbe35ca51	-0.17752959
166	0xbdd6725d	-0.10471032
167	0xbe59d572	-0.21272829
168	0xbd078bc5	-0.03309228
169	0xbdcd8bc5	-0.100364245
170	0xbdbde23c	-0.092716664
171	0x3e23e127	0.16003858
172	0x3d9880e9	0.07446463
173	0x3ca4e500	0.020128727
174	0x3d5be50f	0.053685244
175	0xbe3f3f91	-0.18676592
176	0x3e2c488c	0.1682455
177	0xbe51e8ea	-0.20499006
178	0x3e02cc18	0.12773168
179	0xbdcd204d	-0.100159265
180	0xbe590bca	-0.21195903
181	0xbe0e3060	-0.13885641
182	0x3dd8b1be	0.10580777
183	0xbd0ba4b0	-0.034092605
184	0x3db34109	0.08752639
185	0xbe0f9731	-0.14022519
186	0x3c524abc	0.012835201
187	0x3ce3a8b2	0.027790401
188	0xbdfac98c	-0.12245473
189	0xbdf527f8	-0.11970514
190	0x3ce63dda	0.028105665
191	0xbdd961dc	-0.10614368
192	0xbc8778b1	-0.016537042
193	0xbe0ceb08	-0.13761532
194	0x3dbff479	0.09372801
195	0x3d5fe0ab	0.05465762
196	0x3d138820	0.03601849
197	0xbc770ae9	-0.015078285
198	0x3cad6e17	0.021170659
199	0x3d493d86	0.04913094
200	0x3e10ff00	0.14159775
201	0xbda87fb9	-0.08227486
202	0x3c1d8965	0.009615277
203	0x3d5fc7a9	0.05463377
204	0xbe4e5195	-0.20148309
205	0x3e3fa6c4	0.1871596
206	0xbd22e6e9	-0.039770994
207	0xba8cd81a	-0.0010745556
208	0xbda8240f	-0.08210003
209	0xbe111f55	-0.14172108
210	0x3e0e49bd	0.13895316
211	0xbda42deb	-0.08016571
212	0xbdf1a118	-0.11798304
213	0xbd9fa680	-0.07795429
214	0x3da6fed1	0.08154071
215	0xbdb64d83	-0.08901503
216	0xbe183c90	-0.14866853
217	0xbe0ba306	-0.13636407
218	0x3c8e59dc	0.017376833
219	0x3e1acaab	0.15116374
220	0xbdff3057	-0.12460392
221	0x3af4dbc9	0.0018681224
222	0x3e500d68	0.20317614
223	0x3d619b57	0.055079784
224	0xbde1030b	-0.109869085
225	0x3d21c510	0.039494574
226	0xbdec7d05	-0.11547283
227	0x3da21aa7	0.0791524
228	0x3e28030b	0.16407411
229	0x3df67987	0.12034898
230	0x3d8f0239	0.06982846
231	0x3da40d60	0.080103636
232	0xbe3b5076	-0.18292412
233	0x3dbb65fe	0.09150313
234	0xbe219d4f	-0.15782665
235	0x3e380aea	0.17972913
236	0x3e5bc523	0.2146192
237	0x3d9dc492	0.077035084
238	0x3cdf9460	0.02729243
239	0xbe2d6202	-0.16931918
240	0x3e1b386e	0.15158245
241	0xbe078b68	-0.13236773
242	0xbe2a3e3a	-0.166253
243	0x3d6f5c40	0.058437586
244	0xbda1048c	-0.078621954
245	0xbd511fd2	-0.051055737
246	0xbe5414e4	-0.20711094
247	0xbc788d29	-0.015170374
248	0xbe518182	-0.2045956
249	0x3c86215e	0.016373333
250	0x3dbad26e	0.091221675
251	0x3e36b428	0.17842162
252	0x3de0e63c	0.10981414
253	0x3e55454b	0.20827214
254	0xbd122e11	-0.035688464
255	0x3c471ca1	0.012152822

net.6.bias f4 [64]
0	0x00000000	0.0
1	0x00000000	0.0
2	0x00000000	0.0
3	0x00000000	0.0
4	0x00000000	0.0
5	0x00000000	0.0
6	0x00000000	0.0
7	0x00000000	0.0
8	0x00000000	0.0
9	0x00000000	0.0
10	0x00000000	0.0
11	0x00000000	0.0
12	0x00000000	0.0
13	0x00000000	0.0
14	0x00000000	0.0
15	0x00000000	0.0
16	0x00000000	0.0
17	0x00000000	0.0
18	0x00000000	0.0
19	0x00000000	0.0
20	0x00000000	0.0
21	0x00000000	0.0
22	0x00000000	0.0
23	0x00000000	0.0
24	0x00000000	0.0
25	0x00000000	0.0
26	0x00000000	0.0
27	0x00000000	0.0
28	0x00000000	0.0
29	0x00000000	0.0
30	0x00000000	0.0
31	0x00000000	0.0
32	0x00000000	0.0
33	0x00000000	0.0
34	0x00000000	0.0
35	0x00000000	0.0
36	0x00000000	0.0
37	0x00000000	0.0
38	0x00000000	0.0
39	0x00000000	0.0
40	0x00000000	0.0
41	0x00000000	0.0
42	0x00000000	0.0
43	0x00000000	0.0
44	0x00000000	0.0
45	0x00000000	0.0
46	0x00000000	0.0
47	0x00000000	0.0
48	0x00000000	0.0
49	0x00000000	0.0
50	0x00000000	0.0
51	0x00000000	0.0
52	0x00000000	0.0
53	0x00000000	0.0
54	0x00000000	0.0
55	0x00000000	0.0
56	0x00000000	0.0
57	0x00000000	0.0
58	0x00000000	0.0
59	0x00000000	0.0
60	0x00000000	0.0
61	0x00000000	0.0
62	0x00000000	0.0
63	0x00000000	0.0

net.8.weight f4 [1, 64]
0	0xbe956f19	-0.29186323
1	0x3e97fd9f	0.29685685
2	0xba8f1d05	-0.0010918683
3	0x3e8dc7d5	0.27691522
4	0x3d1d91e4	0.03846921
5	0x3dd79400	0.10526276
6	0xbe06a850	-0.13150144
7	0x3bf05b2f	0.0073350887
8	0x3e705963	0.23471598
9	0x3d072c36	0.033001147
10	0x3e2fc684	0.17165571
11	0xbe60e424	-0.21962029
12	0x3e502f04	0.20330435
13	0x3e3c1ef8	0.18371189
14	0xbe7b9fb8	-0.24572647
15	0x3dd6c212	0.10486235
16	0xbd30890d	-0.04309945
17	0xb90871ba	-0.00013012337
18	0xbe5d87a4	-0.21633774
19	0xbe8c5173	-0.2740589
20	0x3e6505e1	0.22365524
21	0x3ce593d6	0.028024595
22	0x3e2e4c25	0.17021234
23	0xbe85d871	-0.26141694
24	0x3e7907d9	0.243194
25	0xbd9a5c34	-0.075371176
26	0xbde403cd	-0.111335374
27	0x3e90242a	0.2815259
28	0x3e0bf174	0.13666326
29	0xbd6a3cf7	-0.057187047
30	0xbc8c9ba3	-0.017164057
31	0x3e4f87ef	0.20266698
32	0x3daba917	0.08381861
33	0x3e5d2ee8	0.21599925
34	0xbe56b864	-0.20968777
35	0xbe83aecc	-0.25719297
36	0x3e913f71	0.28368714
37	0xbe4eb57a	-0.20186415
38	0x3e3225e7	0.17397271
39	0x3e92169a	0.2853287
40	0x3e64193a	0.22275248
41	0xbdbb40dc	-0.0914323
42	0x3e1bed00	0.15227127
43	0xbe71a90d	-0.23599644
44	0xbe767540	-0.24068165
45	0xbe98d05a	-0.2984646
46	0x3e549af0	0.20762229
47	0x3e32b41e	0.17451522
48	0xbd581afe	-0.052760117
49	0xbdef49b9	-0.11683983
50	0xbe4abcc9	-0.19798578
51	0xbe6c612f	-0.23083948
52	0xbdd108ef	-0.10206782
53	0x3c765223	0.015034231
54	0x3e8806fe	0.26567835
55	0xbdc821d6	-0.09772079
56	0x3e0887c5	0.13333042
57	0xbda75613	-0.08170714
58	0xbe860212	-0.26173455
59	0xbe872b58	-0.26400256
60	0xbdffff82	-0.12499906
61	0x3e4b74a9	0.19868721
62	0xbe3e957c	-0.18611711
63	0x3e16888d	0.14700527

mean f4 [6]
0	0x436003c5	224.01472
1	0x4361ba22	225.72708
2	0x00000000	0.0
3	0x00000000	0.0
4	0xc0c533db	-6.16258
5	0x3fec12ad	1.8443199

std f4 [6]
0	0x42279462	41.894905
1	0x422b6efb	42.85838
2	0x3f800000	1.0
3	0x3f800000	1.0
4	0x4316c5c9	150.7726
5	0x4313fa7f	147.9785
