src/ebm_tool_designer/weights/reward_model_best.pt (torch, 174401 bytes, 11 tensors)

net.0.weight f4 [128, 6]
-0.60322297 -0.18171895 0.84552 -0.9000348 0.37190437 0.8194064 0.94693637 -0.85352516
0.6737827 0.5474744 -0.5818472 0.3739624 0.023133874 0.2683878 0.85354424 0.70110583
-0.09703696 0.686293 -0.69041204 0.31910658 0.597981 -0.77119076 0.7339896 -0.64317095
0.84961736 0.2507038 -0.3722217 0.43032455 -0.89314914 -0.7427114 -0.18925965 -0.52238166
-0.025859714 0.25949562 0.025203109 -0.8698665 0.7599218 0.979128 0.8405118 -0.82641363
-0.36508918 -0.21476996 0.6522125 0.5544642 0.491861 0.069016695 -0.41457427 -0.2605996
0.2117461 -0.91864467 0.6863024 0.71081066 0.72510207 0.67168856 -0.69991493 -0.22923326
0.30622458 0.41113138 -0.048971653 -0.24865365 0.6569005 -0.12636566 0.3796184 -0.14534211
-0.6243439 0.93023074 -0.6224886 0.3571514 0.3114226 -0.9780576 -0.34238756 -0.43495262
-0.889716 0.21912217 -0.30978763 0.28884566 0.46536088 0.19484246 0.1833142 0.9582416
0.7648151 -0.97745955 0.13223863 0.25058782 0.5029286 0.8856865 -0.22115862 -0.9127625
-0.9450339 0.08907795 -0.66599524 -0.60273397 -0.26802647 -0.45361733 0.6822715 -0.44831836
0.55172515 0.09014535 -0.7017251 0.66206574 -0.36545503 -0.8557545 0.34284937 0.38853168
-0.5521287 0.9085038 0.9270505 -0.0061933994 0.4640541 0.036178827 -0.699522 -0.061852813
-0.35358727 -0.5435432 -0.57220423 -0.09317231 -0.87924004 -0.99238646 -0.54371965 -0.70224583
0.15866649 0.595158 -0.29167128 0.030103564 0.7008194 -0.85272086 0.35550296 0.5368084
-0.7795161 0.82136285 0.89957476 -0.034950495 0.7939137 -0.49438286 0.79475296 -0.7634758
-0.6453285 -0.4439721 -0.6520809 0.18793559 0.08850026 0.9806069 0.77770686 0.3637426
-0.43489647 0.8959124 0.7884556 -0.23870516 -0.19588101 -0.13715482 0.34207845 0.7086017
0.14039254 0.18302083 -0.19315624 0.8746842 0.3806002 -0.68813634 -0.4452263 0.4709617
0.2792244 0.55035853 0.79797196 0.78035367 0.680408 0.6361493 0.30071175 -0.96363056
0.16807342 0.7446606 0.91706574 -0.32452583 0.7965857 -0.08886933 0.8898821 -0.47418368
-0.37758565 -0.29967797 0.55822825 0.20652103 0.37426484 0.25703502 0.4051684 0.31564927
-0.035434723 -0.6534848 -0.22778332 0.34219122 0.40449786 0.6713408 -0.99484813 0.996256
0.24257374 -0.21769798 -0.42192543 -0.3434496 0.8221917 0.9389001 -0.35589635 0.51076686
-0.4983256 -0.4621799 0.41742015 -0.18123364 0.5138873 -0.4783994 -0.5675982 0.25935757
-0.17246783 -0.45450723 0.29936326 0.89909065 0.16751444 -0.30349958 0.9233571 -0.99761987
0.5748435 0.6537157 0.40853012 -0.51794565 0.8096975 0.65815604 -0.5596193 -0.46303558
-0.56777906 -0.9451045 0.14810109 -0.7203022 -0.78208566 0.2088871 0.57818687 0.060109854
-0.42869508 0.15311956 -0.22754335 0.10202694 0.4234786 -0.63334775 0.53617024 0.93733656
0.10227072 0.9776679 -0.29221094 -0.9684285 0.10731804 0.9256183 -0.8328743 -0.4855305
-0.60549927 -0.5868243 -0.5120374 -0.6721016 -0.5424441 -0.9945984 -0.12715793 -0.6189548
00000000: d26c 1abf 8814 3abe 0074 583f ae68 66bf
00000010: 406a be3e 9ec4 513f 6c6a 723f a080 5abf
00000020: 067d 2c3f 4827 0c3f f0f3 14bf 0078 bf3e
00000030: 4083 bd3c 206a 893e e081 5a3f ac7b 333f
00000040: 50bb c6bd e6b0 2f3f d8be 30bf f061 a33e
00000050: 4815 193f c26c 45bf bee6 3b3f daa6 24bf
00000060: 8680 593f 405c 803e d893 bebe 8053 dc3e
00000070: 6ca5 64bf 5622 3ebf 48cd 41be ceba 05bf
00000080: c0d7 d3bc 9cdc 843e c076 ce3c 92af 5ebf
00000090: 3c8a 423f 22a8 7a3f c82b 573f d88f 53bf
000000a0: f8ec babe a8ec 5bbe 66f7 263f 5ef1 0d3f
000000b0: 34d5 fb3e a058 8d3d 1443 d4be 506d 85be
000000c0: f8d3 583e 4c2c 6bbf 84b1 2f3f b0f7 353f
000000d0: 4aa0 393f c8f3 2b3f a02d 33bf 20bc 6abe
000000e0: 78c9 9c3e d07f d23e 8096 48bd 109f 7ebe
000000f0: a22a 283f 0066 01be 585d c23e 90d4 14be
00000100: 00d5 1fbf 9a23 6e3f 6a5b 1fbf 8cdc b63e
00000110: c872 9f3e fc61 7abf 6c4d afbe 1cb2 debe
00000120: 6ec4 63bf 9061 603e 7c9c 9ebe 94e3 933e
00000130: c843 ee3e c884 473e b8b6 3b3e 524f 753f
00000140: ecca 433f ca3a 7abf 9069 073e 0c4d 803e
00000150: eebf 003f 5abc 623f 6877 62be ceaa 69bf
00000160: beed 71bf 806e b63d aa7e 2abf c64c 1abf
00000170: c43a 89be 8840 e8be 58a9 2e3f fc89 e5be
00000180: dc3d 0d3f 209e b83d 42a4 33bf 247d 293f
00000190: ec1c bbbe ba12 5bbf f489 af3e a0ed c63e
000001a0: 4e58 0dbf b493 683f 2e53 6d3f 00f2 cabb
000001b0: 8098 ed3e 4030 143d e013 33bf 6059 7dbd
000001c0: 6409 b5be a625 0bbf fa7b 12bf 20d1 bebd
000001d0: e015 61bf 0a0d 7ebf 3631 0bbf 62c6 33bf
000001e0: 7879 223e 465c 183f f055 95be c09b f63c
000001f0: e668 333f ea4b 5abf 7c04 b63e 466c 093f
00000200: 5e8e 47bf d644 523f 884a 663f 4028 0fbd
00000210: ee3d 4b3f c01f fdbe ee74 4b3f 2673 43bf
00000220: 4034 25bf 5050 e3be c6ee 26bf 3072 403e
00000230: a03f b53d 0e09 7b3f cc17 473f 783c ba3e
00000240: c0aa debe 845a 653f 3ad8 493f 206f 74be
00000250: 0895 48be 5072 0cbe e824 af3e ec66 353f
00000260: 10c3 0f3e d069 3b3e c0ca 45be 4eeb 5f3f
00000270: 08de c23e b429 30bf b4f4 e3be e421 f13e
00000280: 80f6 8e3e 4ce4 0c3f e447 4c3f 42c5 473f
00000290: 382f 2e3f aeda 223f e4f6 993e 7eb0 76bf
000002a0: 701b 2c3e 14a2 3e3f d2c4 6a3f 4028 a6be
000002b0: 0aed 4b3f 2001 b6bd 50cf 633f 34c8 f2be
000002c0: e852 c1be 646f 99be 0ce8 0e3f 407a 533e
000002d0: a49f bf3e 189a 833e 3c72 cf3e c89c a13e
000002e0: 0024 11bd c84a 27bf 0840 69be b033 af3e
000002f0: 581a cf3e fedc 2b3f 5eae 7ebf a20a 7f3f
00000300: 4065 783e 38ec 5ebe 9c06 d8be a0d8 afbe
00000310: 287b 523f c25b 703f 0c38 b6be 9ec1 023f
00000320: 8824 ffbe d8a2 ecbe 18b8 d53e 5095 39be
00000330: 1e8e 033f c4f0 f4be 1e4e 11bf 84ca 843e
00000340: 689b 30be 2cb5 e8be 2446 993e ce2a 663f
00000350: e888 2b3e 4c64 9bbe 2261 6c3f 0464 7fbf
00000360: f228 133f ea59 273f dc2a d13e 1698 04bf
00000370: 5648 4f3f ea7c 283f 3643 0fbf 0013 edbe
00000380: f859 11bf 5ef2 71bf d0a7 173e ba65 38bf
00000390: c436 48bf 80e6 553e 0e04 143f c035 763d
000003a0: ec7d dbbe 60cb 1c3e 2001 69be 80f3 d03d
000003b0: 30d2 d83e 1423 22bf 7442 093f 4af5 6f3f
000003c0: 5073 d13d 7248 7a3f ac9c 95be eeea 77bf
000003d0: 90c9 db3d 52f5 6c3f 4037 55bf 7497 f8be
000003e0: 0002 1bbf 1e3a 16bf e214 03bf da0e 2cbf
000003f0: 9edd 0abf 009e 7ebf b035 02be d273 1ebf

net.0.bias f4 [128]
0.0 0.0 0.0 0.0 0.0 0.0 0.0 0.0
0.0 0.0 0.0 0.0 0.0 0.0 0.0 0.0
0.0 0.0 0.0 0.0 0.0 0.0 0.0 0.0
0.0 0.0 0.0 0.0 0.0 0.0 0.0 0.0
0.0 0.0 0.0 0.0 0.0 0.0 0.0 0.0
0.0 0.0 0.0 0.0 0.0 0.0 0.0 0.0
0.0 0.0 0.0 0.0 0.0 0.0 0.0 0.0
0.0 0.0 0.0 0.0 0.0 0.0 0.0 0.0
0.0 0.0 0.0 0.0 0.0 0.0 0.0 0.0
0.0 0.0 0.0 0.0 0.0 0.0 0.0 0.0
0.0 0.0 0.0 0.0 0.0 0.0 0.0 0.0
0.0 0.0 0.0 0.0 0.0 0.0 0.0 0.0
0.0 0.0 0.0 0.0 0.0 0.0 0.0 0.0
0.0 0.0 0.0 0.0 0.0 0.0 0.0 0.0
0.0 0.0 0.0 0.0 0.0 0.0 0.0 0.0
0.0 0.0 0.0 0.0 0.0 0.0 0.0 0.0
00000000: 0000 0000 0000 0000 0000 0000 0000 0000
00000010: 0000 0000 0000 0000 0000 0000 0000 0000
00000020: 0000 0000 0000 0000 0000 0000 0000 0000
00000030: 0000 0000 0000 0000 0000 0000 0000 0000
00000040: 0000 0000 0000 0000 0000 0000 0000 0000
00000050: 0000 0000 0000 0000 0000 0000 0000 0000
00000060: 0000 0000 0000 0000 0000 0000 0000 0000
00000070: 0000 0000 0000 0000 0000 0000 0000 0000
00000080: 0000 0000 0000 0000 0000 0000 0000 0000
00000090: 0000 0000 0000 0000 0000 0000 0000 0000
000000a0: 0000 0000 0000 0000 0000 0000 0000 0000
000000b0: 0000 0000 0000 0000 0000 0000 0000 0000
000000c0: 0000 0000 0000 0000 0000 0000 0000 0000
000000d0: 0000 0000 0000 0000 0000 0000 0000 0000
000000e0: 0000 0000 0000 0000 0000 0000 0000 0000
000000f0: 0000 0000 0000 0000 0000 0000 0000 0000
00000100: 0000 0000 0000 0000 0000 0000 0000 0000
00000110: 0000 0000 0000 0000 0000 0000 0000 0000
00000120: 0000 0000 0000 0000 0000 0000 0000 0000
00000130: 0000 0000 0000 0000 0000 0000 0000 0000
00000140: 0000 0000 0000 0000 0000 0000 0000 0000
00000150: 0000 0000 0000 0000 0000 0000 0000 0000
00000160: 0000 0000 0000 0000 0000 0000 0000 0000
00000170: 0000 0000 0000 0000 0000 0000 0000 0000
00000180: 0000 0000 0000 0000 0000 0000 0000 0000
00000190: 0000 0000 0000 0000 0000 0000 0000 0000
000001a0: 0000 0000 0000 0000 0000 0000 0000 0000
000001b0: 0000 0000 0000 0000 0000 0000 0000 0000
000001c0: 0000 0000 0000 0000 0000 0000 0000 0000
000001d0: 0000 0000 0000 0000 0000 0000 0000 0000
000001e0: 0000 0000 0000 0000 0000 0000 0000 0000
000001f0: 0000 0000 0000 0000 0000 0000 0000 0000

net.2.weight f4 [128, 128]
-0.049907237 -0.20491365 -0.13053915 0.10884837 0.011693696 0.1592655 0.19980328 -0.013952755
-0.13921279 0.06286165 0.1541899 -0.1108595 0.21043578 -0.14880152 0.1906168 0.008558892
-0.017314246 -0.0868965 -0.10030764 -0.19728473 -0.16681467 -0.109398656 0.044817306 0.21172796
-0.046323217 -0.17868648 0.17264503 -0.1402025 -0.167373 -0.18920259 -0.09507723 0.12298922
-0.1613248 -0.11881391 0.18592872 -0.11130022 -0.0050383117 -0.009425964 -0.043833345 0.054955125
0.06818387 0.15977581 -0.07428802 -0.21404837 0.011383594 0.052456785 0.0383444 -0.18102598
-0.0058126245 0.019074121 -0.08996782 -0.1964829 -0.13682498 0.06956407 0.21415566 0.09741687
-0.062045634 0.029126976 0.051878083 0.19554035 -0.017968414 0.14369312 0.19959608 0.12888423
0.11478663 0.062189624 -0.20320353 -0.0051974277 -0.11799337 -0.18769866 0.004380658 0.0023204866
-0.16413324 0.19041112 0.21526083 -0.14765571 -0.20716724 -0.15858446 0.12720956 0.14730988
-0.085273445 -0.09965113 0.17394808 0.06061266 -0.10274459 -0.09157609 -0.21316333 0.093841605
-0.15747757 0.03886245 -0.16014262 -0.06573687 -0.19782807 0.06996076 0.07451635 0.19398941
-0.0029383418 0.13456213 0.15185632 0.010730328 -0.1172676 -0.16243982 -0.04497849 0.10478414
0.21076712 -0.028650995 -0.021416133 -0.21045823 -0.11155798 -0.02872259 -0.026184943 0.034209833
0.14867212 0.018823821 -0.041172195 -0.17560472 -0.20815454 -0.11295738 -0.12275188 -0.102446355
0.14666326 -0.0127714 0.069309965 -0.15940973 0.082874395 0.09019972 -0.14801948 0.18829659
-0.1676873 0.18771335 0.15453066 -0.12992288 0.010968834 0.033334993 0.17666863 0.0035657724
-0.17882283 0.2085505 -0.21059456 -0.1667495 0.14592168 -0.20491725 0.059287727 0.11415242
-0.020164447 0.03706316 0.20231952 0.13997468 0.13329196 0.03861243 0.17405872 0.17570849
-0.06132255 -0.11822674 0.05696218 0.10741284 -0.01116318 0.15142791 0.043089356 -0.12421683
-0.124947965 0.066888414 -0.21368724 -0.18270627 -0.21593761 -0.058210563 0.115090616 0.122448385
-0.08893453 0.0909754 0.0012728763 -0.16252537 0.17495273 -0.048645977 -0.118250124 -0.12033099
-0.021153986 0.092880145 -0.11770363 -0.06256539 0.13481468 -0.2151434 -0.09383879 0.18761116
0.13392086 -0.10422887 -0.0011209096 0.0074849813 0.007590284 0.11456335 -0.058365084 0.0006457554
-0.1866606 0.14816725 0.090003565 0.054697134 -0.016464543 0.11026562 0.050933816 -0.10171703
0.06304387 -0.21234667 0.106759675 0.20534807 0.0661077 -0.111732945 -0.015627977 -0.0729509
0.031829495 0.121312894 0.119297884 -0.20679663 -0.027069308 0.023482887 -0.13322096 0.1253359
0.047077734 -0.053836953 -0.20359167 -0.15811308 0.21012178 -0.03016519 -0.10101966 0.011723351
0.16501094 -0.16660744 -0.004895275 0.19534433 -0.1378873 -0.20774327 -0.11604449 0.14993247
0.03257957 -0.2019959 -0.1932591 0.17423359 -0.04123561 -0.15773115 0.15307157 -0.025557099
-0.026238238 0.07837852 -0.14733583 0.109721944 0.009035594 0.16248031 -0.029677339 -0.05412491
-0.107685596 0.14178269 -0.15460058 -0.08685893 -0.11598969 0.0767924 -0.12773281 -0.14526035
00000000: 886b 4cbd e2d4 51be 0eac 05be e5eb de3d
00000010: ea96 3f3c 7f16 233e 3b99 4c3e 199a 64bc
00000020: cc8d 0ebe 9cbd 803d f5e3 1d3e 4e0a e3bd
00000030: 7a7c 573e 6d5f 18be 0d31 433e 983a 0c3c
00000040: 9bd6 8dbc cbf6 b1bd 186e cdbd 0205 4abe
00000050: 77d1 2abe 670c e0bd 5a92 373d 37cf 583e
00000060: 6abd 3dbd 97f9 36be dcc9 303e 3f91 0fbe
00000070: d463 2bbe 53be 41be dab7 c2bd c6e1 fb3d
00000080: 5432 25be b554 f3bd 1964 3e3e 5ff1 e3bd
00000090: 6c18 a5bb 5c6f 1abc 988a 33bd a018 613d
000000a0: fca3 8b3d 459c 233e 5124 98bd 7f2f 5bbe
000000b0: 4182 3a3c eddc 563d 040f 1d3d e05e 39be
000000c0: d477 bebb 5541 9c3c 0c41 b8bd d032 49be
000000d0: d91b 0cbe 9b77 8e3d 9f4b 5b3e 7f82 c73d
000000e0: 9023 7ebd b29b ee3c 1d7e 543d bb3b 483e
000000f0: 7f32 93bc 4a24 133e ea62 4c3e 3afa 033e
00000100: 4115 eb3d 8cba 7e3d 9614 50be 2f4f aabb
00000110: 82a6 f1bd 1434 40be 9f8b 8f3b 4e13 183b
00000120: 8b12 28be 22fb 423e 566d 5c3e 0f33 17be
00000130: a623 54be f763 22be 3943 023e 67d8 163e
00000140: d8a3 aebd e415 ccbd 721f 323e fb44 783d
00000150: c16b d2bd 3f8c bbbd 7d47 5abe 0730 c03d
00000160: cd41 21be 3b2e 1f3d 6dfc 23be 0da1 86bd
00000170: 7193 4abe 9647 8f3d 079c 983d 29a5 463e
00000180: 3291 40bb a8ca 093e 3980 1b3e 42ce 2f3c
00000190: ff29 f0bd a056 26be 5d3b 38bd 1199 d63d
000001a0: 56d3 573e 7eb5 eabc e370 afbc 5d82 57be
000001b0: 8378 e4bd a34b ebbc ce81 d6bc 9c1f 0c3d
000001c0: 813d 183e 6a34 9a3c 2da4 28bd b9d1 33be
000001d0: 7726 55be 3356 e7bd 5665 fbbd 65cf d1bd
000001e0: e52e 163e 223f 51bc 62f2 8d3d 4e3c 23be
000001f0: 0dba a93d a1ba b83d 6b92 17be d2d0 403e
00000200: 38b6 2bbe ee37 403e 493d 1e3e 810a 05be
00000210: a0b6 333c 468a 083d 9fe8 343e bcaf 693b
00000220: 551d 37be 438e 553e 1aa6 57be 62c0 2abe
00000230: 7e6c 153e d4d5 51be b0d7 723d bec8 e93d
00000240: e92f a5bc 8acf 173d d92c 4f3e 8655 0f3e
00000250: b07d 083e 1128 1e3d 733c 323e edec 333e
00000260: 5b2d 7bbd dc20 f2bd 2d51 693d 43fb db3d
00000270: c5e5 36bc eb0f 1b3e 777e 303d 6565 febd
00000280: b8e4 ffbd cbfc 883d d4d0 5abe 5a17 3bbe
00000290: c01e 5dbe 336e 6ebd a1b4 eb3d 38c6 fa3d
000002a0: 4f23 b6bd 4f51 ba3d a4d6 a63a 0d6d 26be
000002b0: cf26 333e 0141 47bd 1f2d f2bd 1870 f6bd
000002c0: 204b adbc f237 be3d 9a0e f1bd 4822 80bd
000002d0: dc0c 0a3e 8d4e 5cbe 8d2e c0bd 241d 403e
000002e0: 8d22 093e f275 d5bd 7ceb 92ba 9344 f53b
000002f0: ebb7 f83b 31a0 ea3d 3a10 6fbd e947 293a
00000300: f523 3fbe 28b9 173e ca53 b83d 1a0a 603d
00000310: a6e0 86bc f1d2 e13d fa9f 503d 0551 d0bd
00000320: 251d 813d 6871 59be d1a4 da3d c446 523e
00000330: 7963 873d 3ed4 e4bd 3e06 80bc 4867 95bd
00000340: a55f 023d e572 f83d 7352 f43d 7fc2 53be
00000350: 74c0 ddbc 2f5f c03c 136b 08be 0e58 003e
00000360: 95d4 403d 2384 5cbd 567a 50be 65e8 21be
00000370: 2a2a 573e fd1c f7bc 65e3 cebd 4c13 403c
00000380: a1f8 283e 249b 2abe 8b68 a0bb 5808 483e
00000390: 5432 0dbe a7ba 54be bca8 edbd e687 193e
000003a0: 2872 053d 03d8 4ebe b7e5 45be 4a6a 323e
000003b0: ace6 28bd 4684 21be cbbe 1c3e 1f5d d1bc
000003c0: 93f1 d6bc eb84 a03d 34df 16be e6b5 e03d
000003d0: 070a 143c 3d61 263e e41d f3bc 15b2 5dbd
000003e0: 448a dcbd 7b2f 113e 9d4f 1ebe 18e3 b1bd
000003f0: 018c edbd 5545 9d3d 64cc 02be 21bf 14be

net.2.bias f4 [128]
0.0 0.0 0.0 0.0 0.0 0.0 0.0 0.0
0.0 0.0 0.0 0.0 0.0 0.0 0.0 0.0
0.0 0.0 0.0 0.0 0.0 0.0 0.0 0.0
0.0 0.0 0.0 0.0 0.0 0.0 0.0 0.0
0.0 0.0 0.0 0.0 0.0 0.0 0.0 0.0
0.0 0.0 0.0 0.0 0.0 0.0 0.0 0.0
0.0 0.0 0.0 0.0 0.0 0.0 0.0 0.0
0.0 0.0 0.0 0.0 0.0 0.0 0.0 0.0
0.0 0.0 0.0 0.0 0.0 0.0 0.0 0.0
0.0 0.0 0.0 0.0 0.0 0.0 0.0 0.0
0.0 0.0 0.0 0.0 0.0 0.0 0.0 0.0
0.0 0.0 0.0 0.0 0.0 0.0 0.0 0.0
0.0 0.0 0.0 0.0 0.0 0.0 0.0 0.0
0.0 0.0 0.0 0.0 0.0 0.0 0.0 0.0
0.0 0.0 0.0 0.0 0.0 0.0 0.0 0.0
0.0 0.0 0.0 0.0 0.0 0.0 0.0 0.0
00000000: 0000 0000 0000 0000 0000 0000 0000 0000
00000010: 0000 0000 0000 0000 0000 0000 0000 0000
00000020: 0000 0000 0000 0000 0000 0000 0000 0000
00000030: 0000 0000 0000 0000 0000 0000 0000 0000
00000040: 0000 0000 0000 0000 0000 0000 0000 0000
00000050: 0000 0000 0000 0000 0000 0000 0000 0000
00000060: 0000 0000 0000 0000 0000 0000 0000 0000
00000070: 0000 0000 0000 0000 0000 0000 0000 0000
00000080: 0000 0000 0000 0000 0000 0000 0000 0000
00000090: 0000 0000 0000 0000 0000 0000 0000 0000
000000a0: 0000 0000 0000 0000 0000 0000 0000 0000
000000b0: 0000 0000 0000 0000 0000 0000 0000 0000
000000c0: 0000 0000 0000 0000 0000 0000 0000 0000
000000d0: 0000 0000 0000 0000 0000 0000 0000 0000
000000e0: 0000 0000 0000 0000 0000 0000 0000 0000
000000f0: 0000 0000 0000 0000 0000 0000 0000 0000
00000100: 0000 0000 0000 0000 0000 0000 0000 0000
00000110: 0000 0000 0000 0000 0000 0000 0000 0000
00000120: 0000 0000 0000 0000 0000 0000 0000 0000
00000130: 0000 0000 0000 0000 0000 0000 0000 0000
00000140: 0000 0000 0000 0000 0000 0000 0000 0000
00000150: 0000 0000 0000 0000 0000 0000 0000 0000
00000160: 0000 0000 0000 0000 0000 0000 0000 0000
00000170: 0000 0000 0000 0000 0000 0000 0000 0000
00000180: 0000 0000 0000 0000 0000 0000 0000 0000
00000190: 0000 0000 0000 0000 0000 0000 0000 0000
000001a0: 0000 0000 0000 0000 0000 0000 0000 0000
000001b0: 0000 0000 0000 0000 0000 0000 0000 0000
000001c0: 0000 0000 0000 0000 0000 0000 0000 0000
000001d0: 0000 0000 0000 0000 0000 0000 0000 0000
000001e0: 0000 0000 0000 0000 0000 0000 0000 0000
000001f0: 0000 0000 0000 0000 0000 0000 0000 0000

net.4.weight f4 [128, 128]
0.17862193 0.17022899 0.12058857 -0.16273707 0.10848311 -0.009317976 0.028059827 -0.18405373
0.10482249 -0.021648213 0.10453964 0.041900955 -0.10496455 -0.18418784 0.06685403 0.1215593
0.0036664298 0.18937905 0.17791145 -0.10875295 0.19827607 0.16566555 0.12382765 0.115548894
0.15729238 0.07984311 -0.17603855 0.19516826 0.023910603 0.13823153 -0.10557587 0.1432571
-0.00033807952 0.08389609 0.16645424 -0.051309884 -0.034721587 -0.10503309 0.0951265 0.1876865
-0.06583455 -0.21134242 -0.010453572 -0.028460857 0.051459115 0.07709698 0.038355418 -0.011300229
-0.12448961 -0.10174916 -0.08108409 0.16027772 -0.18130511 0.2014143 0.19495551 0.13643074
0.13494581 0.20029786 -0.02950924 0.03717574 0.007273549 0.19103089 0.0981009 -0.20363669
-0.01851723 -0.17796423 0.15498292 -0.051564418 0.18164882 -0.14683314 -0.08558107 0.039545447
0.1791628 -0.09765517 -0.21585342 0.10907733 0.16179071 0.09740234 -0.11260139 0.019897938
-0.025677372 -0.011375516 -0.16175036 -0.14709577 -0.0332085 -0.1453288 0.21457316 -0.16418147
0.096740946 -0.020864997 -0.08309697 0.10980268 -0.11949334 -0.120985605 0.058193196 0.16224612
0.18428499 -0.09682054 0.00076891866 0.11148662 -0.055702493 0.11856613 -0.003337874 0.017227603
0.11152854 0.16506153 -0.020674083 0.21297012 -0.08280274 -0.15402237 -0.12822615 0.08575064
0.2094792 0.13959812 0.016499566 0.17143941 -0.061064277 -0.032365482 0.20395961 -0.18873358
0.07365586 0.013219738 -0.045964517 -0.07168639 0.08858564 -0.017259529 -0.15896012 -0.18061925
0.20342004 0.1516533 0.17449813 0.06850081 -0.05810539 0.19498512 0.1598051 -0.06625943
-0.13509335 -0.0007450964 -0.0024243186 0.021957695 0.083119534 -0.2049728 0.033880167 0.15378188
0.16706054 -0.059297558 0.07859016 -0.037853472 -0.16030617 -0.024478955 -0.053370908 0.1302295
-0.11064882 -0.11477262 -0.20368446 -0.061179515 0.10671763 0.13205029 0.19738606 -0.11271776
-0.121246874 -0.16398044 -0.09451732 -0.124645576 0.10528035 -0.14488253 -0.013725683 0.03519207
-0.08874475 -0.13361444 -0.08979051 -0.048268717 -0.016507568 0.1363603 -0.15860483 -0.15349041
0.12278822 -0.11875246 -0.13188718 0.0032945655 -0.045592006 -0.09490823 0.13116606 -0.20953175
-0.105347686 0.042440403 -0.11826354 0.09527065 -0.0044273217 -0.17631468 0.014680121 0.15939228
0.0891623 -0.17136343 0.048998408 -0.14102846 0.08089036 0.09476267 -0.13359027 0.09061412
-0.15292297 0.034596227 -0.12793674 0.18381363 -0.16196188 0.14974761 -0.009033297 0.020478627
-0.08077001 0.14958492 0.10397031 -0.08907011 -0.06243492 0.12121605 0.10334814 0.11682923
0.1589665 0.13753106 0.17067692 -0.13141462 0.09668744 -0.03263775 -0.14859664 -0.04281392
0.1337633 0.008482521 0.02034989 -0.073035166 0.13448 0.14698389 0.11212897 -0.06522708
0.09152935 0.026235348 -0.07218074 0.09191907 -0.054738946 0.09895373 0.117197454 -0.13391049
0.151347 -0.14878406 -0.15518442 0.17058684 0.0350376 0.010605022 0.18039727 -0.15857536
-0.055463366 -0.13222961 -0.17210893 0.008967277 0.19810382 -0.092349604 0.19943458 -0.1771186
00000000: abe8 363e 8250 2e3e 24f7 f63d 8ca4 26be
00000010: 652c de3d 6daa 18bc b9dd e53c 9578 3cbe
00000020: 2cad d63d 9857 b1bc e118 d63d 56a0 2b3d
00000030: a7f7 d6bd bd9b 3cbe c4ea 883d 15f4 f83d
00000040: 7c48 703b 95ec 413e 6b2e 363e deb9 debd
00000050: e208 4b3e 3ba4 293e 5a99 fd3d e6a4 ec3d
00000060: 4111 213e c984 a33d 7343 34be 30da 473e
00000070: 2be0 c33c 918c 0d3e 2938 d8bd fdb1 123e
00000080: 4440 b1b9 b7d1 ab3d fb72 2a3e 502a 52bd
00000090: 3938 0ebd 971b d7bd afd1 c23d e430 403e
000000a0: 44d4 86bd 266a 58be 7545 2bbc be26 e9bc
000000b0: cbc6 523d 05e5 9d3d 921a 1d3d 9824 39bc
000000c0: 69f4 febd dd61 d0bd 6a0f a6bd d81f 243e
000000d0: 0ca8 39be 8d3f 4e3e 6ba2 473e 80b4 0b3e
000000e0: 3c2f 0a3e e21a 4d3e 5dbd f1bc 9745 183d
000000f0: f456 ee3b 9a9d 433e 20e9 c83d 2386 50be
00000100: 72b1 97bc 413c 36be d8b3 1e3e 3635 53bd
00000110: 2602 3a3e 6d5b 16be 2145 afbd 68fa 213d
00000120: 7476 373e 6fff c7bd ae08 5dbe ef63 df3d
00000130: 77ac 253e e17a c73d 8f9b e6bd 0001 a33c
00000140: 5a59 d2bc 5f60 3abc e3a1 25be 46a0 16be
00000150: a305 08bd 13d1 14be 11b9 5b3e 301f 28be
00000160: 1e20 c63d 12ed aabc bf2e aabd 3ae0 e03d
00000170: edb8 f4bd 4dc7 f7bd fd5b 6e3d d923 263e
00000180: 34b5 3c3e d949 c6bd 4291 493a 1953 e43d
00000190: 4c28 64bd cdd2 f23d 3cc0 5abb e720 8d3c
000001a0: 1369 e43d e405 293e b25c a9bc d714 5a3e
000001b0: 7c94 a9bd 0ab8 1dbe b74d 03be 089e af3d
000001c0: b781 563e cff2 0e3e 192a 873c d08d 2f3e
000001d0: 891e 7abd ab91 04bd cada 503e 6043 41be
000001e0: e2d8 963d 9a97 583c 4a45 3cbd 50d0 92bd
000001f0: 636c b53d db63 8dbc 71c6 22be 41f4 38be
00000200: 584d 503e 014b 1b3e a3af 323e 274a 8c3d
00000210: ebff 6dbd 2eaa 473e f3a3 233e 06b3 87bd
00000220: e955 0abe 9352 43ba 51e1 1ebb a0e0 b33c
00000230: 933a aa3d 64e4 51be eec5 0a3d ff78 1d3e
00000240: eb11 2b3e ffe1 72bd e1f3 a03d 3e0c 1bbd
00000250: 4d27 24be 1788 c8bc 749b 5abd e25a 053e
00000260: d99b e2bd e80d ebbd a992 50be 5f97 7abd
00000270: c68e da3d 3138 073e 921f 4a3e 92d8 e6bd
00000280: 4850 f8bd 7dea 27be 4c92 c1bd 2e46 ffbd
00000290: 399d d73d 165c 14be b0e1 60bc 8f25 103d
000002a0: cfbf b5bd 39d2 08be 16e4 b7bd 6bb5 45bd
000002b0: e13a 87bc 09a2 0b3e 4e69 22be 972c 1dbe
000002c0: 6478 fb3d 7d34 f3bd 6f0d 07be a3e9 573b
000002d0: afbe 3abd 3f5f c2bd 6550 063e 7e8f 56be
000002e0: 87c0 d7bd fdd5 2d3d 2834 f2bd 421d c33d
000002f0: 1113 91bb d68b 34be e484 703c bb37 233e
00000300: b99a b63d e579 2fbe 8eb2 483d c469 10be
00000310: d8a9 a53d ee12 c23d e3cb 08be e593 b93d
00000320: d797 1cbe c6b4 0d3d d901 03be a439 3c3e
00000330: 56d9 25be 7057 193e 6500 14bc cbc2 a73c
00000340: bf6a a5bd ca2c 193e 63ee d43d 646a b6bd
00000350: c2bb 7fbd 1f40 f83d 31a8 d33d 2a44 ef3d
00000360: 1dc8 223e f1d4 0c3e eec5 2e3e 8e91 06be
00000370: 1104 c63d 29af 05bd b829 18be a65d 2fbd
00000380: 3ff9 083e 46fa 0a3c d0b4 a63c 7693 95bd
00000390: 20b5 093e f282 163e e0a3 e53d c695 85bd
000003a0: bd73 bb3d 83eb d63c 7fd3 93bd 1140 bc3d
000003b0: f235 60bd 41a8 ca3d 3805 f03d d51f 09be
000003c0: b5fa 1a3e d95a 18be aae8 1ebe 51ae 2e3e
000003d0: 9683 0f3d b0c0 2d3c 10ba 383e 9461 22be
000003e0: 8e2d 63bd 3367 07be 533d 30be 7ceb 123c
000003f0: badb 4a3e ca21 bdbd 9438 4c3e 945e 35be

net.4.bias f4 [128]
0.0 0.0 0.0 0.0 0.0 0.0 0.0 0.0
0.0 0.0 0.0 0.0 0.0 0.0 0.0 0.0
0.0 0.0 0.0 0.0 0.0 0.0 0.0 0.0
0.0 0.0 0.0 0.0 0.0 0.0 0.0 0.0
0.0 0.0 0.0 0.0 0.0 0.0 0.0 0.0
0.0 0.0 0.0 0.0 0.0 0.0 0.0 0.0
0.0 0.0 0.0 0.0 0.0 0.0 0.0 0.0
0.0 0.0 0.0 0.0 0.0 0.0 0.0 0.0
0.0 0.0 0.0 0.0 0.0 0.0 0.0 0.0
0.0 0.0 0.0 0.0 0.0 0.0 0.0 0.0
0.0 0.0 0.0 0.0 0.0 0.0 0.0 0.0
0.0 0.0 0.0 0.0 0.0 0.0 0.0 0.0
0.0 0.0 0.0 0.0 0.0 0.0 0.0 0.0
0.0 0.0 0.0 0.0 0.0 0.0 0.0 0.0
0.0 0.0 0.0 0.0 0.0 0.0 0.0 0.0
0.0 0.0 0.0 0.0 0.0 0.0 0.0 0.0
00000000: 0000 0000 0000 0000 0000 0000 0000 0000
00000010: 0000 0000 0000 0000 0000 0000 0000 0000
00000020: 0000 0000 0000 0000 0000 0000 0000 0000
00000030: 0000 0000 0000 0000 0000 0000 0000 0000
00000040: 0000 0000 0000 0000 0000 0000 0000 0000
00000050: 0000 0000 0000 0000 0000 0000 0000 0000
00000060: 0000 0000 0000 0000 0000 0000 0000 0000
00000070: 0000 0000 0000 0000 0000 0000 0000 0000
00000080: 0000 0000 0000 0000 0000 0000 0000 0000
00000090: 0000 0000 0000 0000 0000 0000 0000 0000
000000a0: 0000 0000 0000 0000 0000 0000 0000 0000
000000b0: 0000 0000 0000 0000 0000 0000 0000 0000
000000c0: 0000 0000 0000 0000 0000 0000 0000 0000
000000d0: 0000 0000 0000 0000 0000 0000 0000 0000
000000e0: 0000 0000 0000 0000 0000 0000 0000 0000
000000f0: 0000 0000 0000 0000 0000 0000 0000 0000
00000100: 0000 0000 0000 0000 0000 0000 0000 0000
00000110: 0000 0000 0000 0000 0000 0000 0000 0000
00000120: 0000 0000 0000 0000 0000 0000 0000 0000
00000130: 0000 0000 0000 0000 0000 0000 0000 0000
00000140: 0000 0000 0000 0000 0000 0000 0000 0000
00000150: 0000 0000 0000 0000 0000 0000 0000 0000
00000160: 0000 0000 0000 0000 0000 0000 0000 0000
00000170: 0000 0000 0000 0000 0000 0000 0000 0000
00000180: 0000 0000 0000 0000 0000 0000 0000 0000
00000190: 0000 0000 0000 0000 0000 0000 0000 0000
000001a0: 0000 0000 0000 0000 0000 0000 0000 0000
000001b0: 0000 0000 0000 0000 0000 0000 0000 0000
000001c0: 0000 0000 0000 0000 0000 0000 0000 0000
000001d0: 0000 0000 0000 0000 0000 0000 0000 0000
000001e0: 0000 0000 0000 0000 0000 0000 0000 0000
000001f0: 0000 0000 0000 0000 0000 0000 0000 0000

net.6.weight f4 [64, 128]
0.08265181 0.07888077 -0.13121189 -0.17873518 0.1508984 0.15589952 -0.13278778 0.16582495
0.113691404 0.20310456 0.20667458 0.18126963 -0.102533594 -0.0016630653 0.16110231 -0.032016795
0.07749204 0.17485866 0.17652287 0.064595126 0.15862761 -0.20998985 -0.16567487 -0.112605624
0.13389322 -0.09598302 0.11419601 0.19542383 -0.16556264 0.10245707 -0.026895221 -0.045218803
0.14803712 0.06378868 0.051314015 0.050305817 -0.08949501 0.00025401777 -0.07787485 -0.13067727
0.060309242 -0.05123757 -0.073430106 -0.1844957 0.030290548 0.16012886 -0.014755872 0.17209151
-0.14454612 0.012726182 -0.078688286 0.06643362 0.16604577 0.047760244 -0.10584323 0.19331516
0.05210495 0.07508355 0.07111432 0.21340169 -0.039991204 0.20452784 -0.040312454 -0.05268293
0.024914002 -0.20017865 0.047885034 0.011088306 -0.12493965 -0.13629405 0.21532659 0.16090462
0.14598534 -0.07981237 -0.1768252 0.10073691 0.032862395 -0.10508962 -0.057388917 -0.008271915
0.19161086 -0.15387127 0.00832547 0.12223935 -0.1186567 -0.20437515 0.13668533 0.11350075
-0.026373094 -0.20292518 0.15122001 0.114532925 -0.11094392 0.21280484 0.009705791 0.013478892
-0.1396004 0.102575324 -0.20038311 -0.04373684 -0.15141088 0.09432744 -0.19156384 -0.06513354
-0.19223213 -0.0711002 0.17273505 0.04872764 0.12577565 0.019503465 -0.059167378 0.1715951
-0.054436535 0.014950863 0.018486567 -0.15835254 0.07456572 0.067302965 -0.09972497 0.21136792
0.16059697 0.18009178 0.17768891 0.1861052 -0.10331423 -0.20096587 0.050720576 0.053460598
0.10003481 -0.15468875 -0.0010541402 0.041217905 0.101587206 0.012773052 -0.16297142 0.012117334
-0.18334131 -0.08104721 -0.005921644 -0.060735203 -0.009474744 0.017596086 -0.07176059 -0.16637725
0.11808244 -0.16624564 0.004942816 0.105702154 -0.13310806 0.08475408 -0.15357436 -0.09347828
0.0068395096 0.019330205 0.11603995 -0.046092637 -0.1898754 -0.17132874 0.21376508 -0.061276097
-0.20839593 -0.14497325 -0.03302352 0.087533794 0.15665035 -0.08360269 -0.022663768 -0.016792815
-0.13213712 -0.11865549 0.14997157 0.043830607 -0.087413885 -0.086354606 -0.06989742 -0.1707182
0.046570476 -0.17056093 -0.0991146 0.015143738 0.16164765 0.17080748 -0.07930134 0.08737297
-0.1925698 -0.111937955 -0.16421111 0.15046291 0.057963282 -0.17287455 0.13268709 -0.024954239
0.0094598 0.065618016 0.03738237 0.08938055 -0.04901335 0.010797175 0.12690689 -0.14584336
-0.079589844 -0.070425384 0.16336767 0.0970511 -0.012351968 -0.1026742 -0.15467228 -0.08349209
-0.20728804 0.07185804 -0.013511361 0.12171529 0.006427331 -0.048802022 -0.19422612 0.16943613
-0.1926853 0.15779449 0.06144809 -0.18077976 0.078153074 0.078201056 -0.037770107 0.18432617
-0.20933358 -0.012996382 0.09554622 0.1463634 -0.18274991 0.20065671 0.16543962 0.17737283
0.052886978 0.19405341 -0.16923922 -0.046184003 -0.01126123 0.061295014 0.008655032 0.12791686
0.14485307 -0.03843752 -0.04417008 -0.016155422 0.15038805 0.03497093 -0.027330035 0.18388347
0.18444435 -0.1389965 0.21243298 0.21381131 0.21044412 0.054859966 0.07476598 0.11171953
00000000: 5a45 a93d 3e8c a13d 695c 06be 5b06 37be
00000010: 1c85 1a3e 20a4 1f3e 85f9 07be 04ce 293e
00000020: 0ad7 e83d a4fa 4f3e 80a2 533e bf9e 393e
00000030: 22fd d1bd 36fb d9ba 01f8 243e 0b24 03bd
00000040: 26b4 9e3d 260e 333e 69c2 343e 734a 843d
00000050: 476f 223e 9407 57be aca6 29be c79d e6bd
00000060: 4e1b 093e bf92 c4bd 99df e93d 2f1d 483e
00000070: 4189 29be 03d5 d13d 5e53 dcbc 5a37 39bd
00000080: 0b97 173e a4a3 823d a52e 523d 790d 4e3d
00000090: 2949 b7bd b02d 8539 d97c 9fbd 43d0 05be
000000a0: d306 773d 7cde 51bd 8662 96bd 71ec 3cbe
000000b0: e223 f83c d2f8 233e 9dc2 71bc c238 303e
000000c0: e603 14be 7a81 503c 5327 a1bd 5a0e 883d
000000d0: e707 2a3e 3fa0 433d 56c4 d8bd 69f4 453e
000000e0: 006c 553d 67c5 993d 62a4 913d f985 5a3e
000000f0: d1cd 23bd bf6f 513e ac1e 25bd 0eca 57bd
00000100: 7318 cc3c a2fb 4cbe 1923 443d baab 353c
00000110: 5ce0 ffbd ab90 0bbe 937e 5c3e 2ec4 243e
00000120: 2e7d 153e ab74 a3bd aa11 35be 274f ce3d
00000130: b89a 063d 3a39 d7bd a410 6bbd ed86 07bc
00000140: a335 443e 6e90 1dbe 8d67 083c a058 fa3d
00000150: 4902 f3bd b847 51be 3df7 0b3e 1573 e83d
00000160: 630c d8bc 9ecb 4fbe 6bd9 1a3e 3d90 ea3d
00000170: 9136 e3bd 83e9 593e 0a05 1f3c 92d6 5c3c
00000180: 68f3 0ebe 0313 d23d 3b31 4dbe 6725 33bd
00000190: 740b 1bbe bf2e c13d 5029 44be bc64 85bd
000001a0: 80d8 44be fb9c 91bd 75e1 303e a296 473d
000001b0: 55cb 003e bbc5 9f3c 7e59 72bd a0b6 2f3e
000001c0: d8f8 5ebd 77f4 743c 2471 973c 2b27 22be
000001d0: eab5 983d 23d6 893d 9b3c ccbd d570 583e
000001e0: 8873 243e fb69 383e 15f4 353e 5d92 3e3e
000001f0: 6996 d3bd ffc9 4dbe 61c0 4f3d 80f9 5a3d
00000200: 0ddf cc3d ba66 1ebe 132b 8aba 1bd4 283d
00000210: f40c d03d 1046 513c fbe1 26be c887 463c
00000220: d3bd 3bbe 14fc a5bd 5a0a c2bb 7ac5 78bd
00000230: f53b 1bbc ab25 903c 37f7 92bd cc5e 2abe
00000240: 35d5 f13d 4c3c 2abe 59f7 a13b 5f7a d83d
00000250: 7b4d 08be 8c93 ad3d 9942 1dbe 8a71 bfbd
00000260: f71d e03b 615a 9e3c 5aa6 ed3d a2cb 3cbd
00000270: b26e 42be cd70 2fbe 3ce5 5a3e a5fc 7abd
00000280: be65 55be de73 14be ac43 07bd eb44 b33d
00000290: f368 203e e337 abbd 5ea9 b9bc 1691 89bc
000002a0: f44e 07be a601 f3bd 2692 193e b987 333d
000002b0: 0d06 b3bd afda b0bd 6126 8fbd c0d0 2ebe
000002c0: afc0 3e3d 86a7 2ebe 98fc cabd 711d 783c
000002d0: f686 253e 28e8 2e3e be68 a2bd 9af0 b23d
000002e0: 0531 45be ba3f e5bd f526 28be f312 1a3e
000002f0: e86a 6d3d 0706 31be 20df 073e d56c ccbc
00000300: 47fd 1a3c bd62 863d 421e 193d 260d b73d
00000310: 39c2 48bd a2e6 303c e1f3 013e f657 15be
00000320: 0000 a3bd 2f3b 90bd db49 273e bac2 c63d
00000330: e95f 4abc da46 d2bd 6962 1ebe e7fd aabd
00000340: 5143 54be 4f2a 933d c15e 5dbc de45 f93d
00000350: 5c9c d23b a1e4 47bd 36e3 46be aa80 2d3e
00000360: 4c4f 45be e194 213e feb0 7b3d 541e 39be
00000370: b80e a03d e027 a03d d4b4 1abd 00c0 3c3e
00000380: 8b5b 56be c7ee 54bc bdad c33d 4ae0 153e
00000390: cb22 3bbe f478 4d3e 0169 293e 39a1 353e
000003a0: 04a0 583d f0b5 463e 0c4d 2dbe 702b 3dbd
000003b0: 0681 38bc 7b10 7b3d d6cd 0d3c a3fc 023e
000003c0: 5d54 143e a970 1dbd b0eb 34bd 6058 84bc
000003d0: 53ff 193e ae3d 0f3d 3de3 dfbc f34b 3c3e
000003e0: fbde 3c3e 1955 0ebe 0888 593e 5af1 5a3e
000003f0: aa7e 573e d8b4 603d e81e 993d 35cd e43d

net.6.bias f4 [64]
0.0 0.0 0.0 0.0 0.0 0.0 0.0 0.0
0.0 0.0 0.0 0.0 0.0 0.0 0.0 0.0
0.0 0.0 0.0 0.0 0.0 0.0 0.0 0.0
0.0 0.0 0.0 0.0 0.0 0.0 0.0 0.0
0.0 0.0 0.0 0.0 0.0 0.0 0.0 0.0
0.0 0.0 0.0 0.0 0.0 0.0 0.0 0.0
0.0 0.0 0.0 0.0 0.0 0.0 0.0 0.0
0.0 0.0 0.0 0.0 0.0 0.0 0.0 0.0
00000000: 0000 0000 0000 0000 0000 0000 0000 0000
00000010: 0000 0000 0000 0000 0000 0000 0000 0000
00000020: 0000 0000 0000 0000 0000 0000 0000 0000
00000030: 0000 0000 0000 0000 0000 0000 0000 0000
00000040: 0000 0000 0000 0000 0000 0000 0000 0000
00000050: 0000 0000 0000 0000 0000 0000 0000 0000
00000060: 0000 0000 0000 0000 0000 0000 0000 0000
00000070: 0000 0000 0000 0000 0000 0000 0000 0000
00000080: 0000 0000 0000 0000 0000 0000 0000 0000
00000090: 0000 0000 0000 0000 0000 0000 0000 0000
000000a0: 0000 0000 0000 0000 0000 0000 0000 0000
000000b0: 0000 0000 0000 0000 0000 0000 0000 0000
000000c0: 0000 0000 0000 0000 0000 0000 0000 0000
000000d0: 0000 0000 0000 0000 0000 0000 0000 0000
000000e0: 0000 0000 0000 0000 0000 0000 0000 0000
000000f0: 0000 0000 0000 0000 0000 0000 0000 0000

net.8.weight f4 [1, 64]
0.07631306 -0.25141844 -0.08873202 -0.038088843 -0.25426257 -0.05838586 -0.25474796 -0.1823274
-0.2910232 -0.27985525 0.23331189 -0.08474349 -0.28892675 0.2116837 -0.1815183 -0.26988846
0.27451488 -0.052617766 0.1662678 -0.04314745 -0.1513 -0.015420331 0.14788139 0.0875908
-0.28955242 0.26182097 0.179232 -0.297704 0.015613819 0.14994158 -0.14771315 -0.30527192
0.2710814 0.10933633 0.03480937 0.16552348 0.061942663 -0.02760163 0.23278719 0.113917805
0.15062712 0.012071287 -0.16985998 -0.0825918 0.021267451 -0.07896094 -0.30066785 -0.2872262
0.014305029 0.21056303 -0.27114066 -0.13177946 -0.03129673 -0.22546226 0.26117036 0.0747114
-0.103472166 -0.06201687 -0.1430777 -0.29654717 -0.018326845 0.0037990182 -0.16263917 0.22823602
00000000: 064a 9c3d ebb9 80be 22b9 b5bd 0c03 1cbd
00000010: b42e 82be 0326 6fbd 536e 82be 09b4 3abe
00000020: fe00 95be 3049 8fbe 50e9 6e3e ff8d adbd
00000030: 35ee 93be 9dc3 583e efdf 39be d22e 8abe
00000040: 378d 8c3e ba85 57bd 1b42 2a3e 61bb 30bd
00000050: 63ee 1abe 8ea5 7cbc 386e 173e ce62 b33d
00000060: 3740 94be 660d 863e 9888 373e a96c 98be
00000070: 1ad1 7f3c 498a 193e 1e42 17be 9a4c 9cbe
00000080: 2ecb 8a3e baeb df3d 4594 0e3d fd7e 293e
00000090: 97b7 7d3d d01c e2bc c45f 6e3e bd4d e93d
000000a0: ff3d 1a3e a6c6 453c c6ef 2dbe e425 a9bd
000000b0: 1439 ae3c 46b6 a1bd 23f1 99be 500f 93be
000000c0: a45f 6a3c d69d 573e f3d2 8abe 32f1 06be
000000d0: 0031 00bd 94df 66be 1fb8 853e 4a02 993d
000000e0: 37e9 d3bd 6705 7ebd f682 12be 08d5 97be
000000f0: 2e22 96bc f3f8 783b e28a 26be b4b6 693e

mean f4 [6]
224.01472 225.72708 0.0 0.0 -6.16258 1.8443199
00000000: c503 6043 22ba 6143 0000 0000 0000 0000
00000010: db33 c5c0 ad12 ec3f

std f4 [6]
41.894905 42.85838 1.0 1.0 150.7726 147.9785
00000000: 6294 2742 fb6e 2b42 0000 803f 0000 803f
00000010: c9c5 1643 7ffa 1343
